checkpoint.pth (torch_old, 45230 bytes, 11 tensors)

fc1.weight f4 [64, 37]
-0.042688698 -0.050147552 -0.061240405 0.1207877 0.2441637 0.08126565 -0.11405102 0.08778769
-0.061044358 -0.08202155 0.4030373 -0.60945755 -0.5051453 -0.39494744 -2.0176697 -0.06750624
0.027824754 0.1139423 0.11677152 -0.025284456 -0.029136898 0.20838256 0.14783247 0.2770484
0.21579066 -0.015860612 0.124328524 -0.052747477 -0.020163642 -0.12066485 0.019210247 0.11516419
-0.06948813 -0.021090303 0.016416948 -0.044892117 -0.007552212 0.0023189278 0.20582269 0.01043005
-0.07290885 0.21311171 -0.076666586 -0.28705022 -0.09455424 -0.19160974 0.18395832 0.0072765076
-0.061689217 0.033648103 -0.107432455 0.43941584 -0.21498719 0.018035127 0.2172768 0.23837863
0.05052961 -0.01667961 -0.12546042 -0.30894238 -0.21003908 -0.29511464 -0.16290693 0.04736013
-0.021279087 0.103069976 0.3160508 -0.057511646 0.10423547 -0.25213325 0.20860179 0.3282578
0.01250998 -0.0030036557 0.38336983 -0.19059837 -0.08669412 -0.50292265 -0.16931514 -0.06420538
-0.07735321 -0.20809442 0.12721302 -0.49729952 0.003821914 -0.3988585 0.11909708 -0.09020814
-0.2122843 -0.07716766 -0.56065047 0.32634306 -0.3530339 0.047993872 -0.33323115 -0.0808134
-0.056654096 0.15144859 -0.24374445 -0.3776617 0.10952534 0.063195474 0.08418742 -0.009284665
-0.198423 0.046820167 -0.2818179 -0.18684566 -0.028924374 0.26559195 -0.07211422 0.2935048
0.009681607 0.064717636 0.048376877 -0.23356733 0.05909755 -0.15600532 0.1917317 0.12823734
0.13704607 0.1742305 0.05450415 0.1612591 -0.51938903 0.048676908 0.09202755 -0.21944128
-0.015109894 -0.2551607 -0.52261776 0.23231637 -0.11475054 -0.20250604 -0.007053241 -0.5953473
0.17211886 0.13226709 0.022644026 0.16738355 0.19258997 0.13004436 0.2980187 0.0026163415
-0.15519561 -0.15629558 0.109797485 -0.02234844 -0.12941405 -0.12341375 -0.101527974 -0.014954659
0.06166807 0.2503004 0.22640759 -0.5057506 -0.12129143 -1.3466662 0.035848968 0.103833504
-0.08787644 -0.18613721 -0.29634604 -0.1317378 -0.019167257 -0.063769825 0.050731506 0.030991983
0.10226084 0.039191805 0.04824374 -0.37008 0.13382638 -0.049526624 0.18091282 0.20631933
-0.020387767 0.1259826 0.27373964 -0.11131609 0.085663304 -0.2538607 -1.0279903 0.004490082
-0.0010200471 0.21366628 -0.4828107 -0.22212203 -0.024739921 0.06568742 0.01026979 -0.027142027
-0.31270257 -0.01765822 -0.2835465 -0.11079171 0.059598137 -0.2376867 -0.43209374 -0.026652683
-0.21062256 0.26380533 -0.46674305 -0.24362342 -0.15798853 0.08989883 -0.07907687 -0.12651311
0.11923976 -0.42643407 -0.05824828 0.0010117088 -0.31816617 -0.25183952 -0.13272448 -0.10143974
-0.02500735 -0.20291111 0.06230736 -0.04599733 -0.2905756 0.11122177 -0.106262155 0.031595785
-0.013936195 -0.034977484 -0.1380196 -0.044317618 -0.14532119 -0.017173892 -0.08906277 0.19650997
-0.014168026 0.09767801 -0.04170639 0.16644302 0.30614015 -0.053114492 -0.11041364 -0.020803725
0.011981636 -0.12100131 -0.16754292 0.0026445691 -0.08684406 0.19275577 0.57579637 -0.15732874
-0.14357266 0.07108594 -0.020109864 0.6285096 0.22286195 0.10105495 -0.105383076 -0.1828082
00000000: 58da 2ebd 8567 4dbd 38d7 7abd 8b5f f73d
00000010: 0d06 7a3e 9b6e a63d 9593 e9bd 08ca b33d
00000020: a609 7abd eafa a7bd e85a ce3e 6905 1cbf
00000030: 3451 01bf 8d36 cabe 8021 01c0 b640 8abd
00000040: bdf0 e33c 955a e93d e825 ef3d 5921 cfbc
00000050: 81b0 eebc 3d62 553e 6561 173e 4ad9 8d3e
00000060: 3af8 5c3e 1dee 81bc f49f fe3d bd0d 58bd
00000070: 392e a5bc 221f f7bd cf5e 9d3c 34db eb3d
00000080: cb4f 8ebd 92c5 acbc d67c 863c cce0 37bd
00000090: 8c78 f7bb 27f9 173b 2fc3 523e cde2 2a3c
000000a0: 3c51 95bd f539 5a3e 5f03 9dbd 3ff8 92be
000000b0: a7a5 c1bd 5835 44be 925f 3c3e c56f ee3b
000000c0: d5ad 7cbd 98d2 093d 8c05 dcbd 1dfb e03e
000000d0: 9a25 5cbe 67be 933c cf7d 5e3e 8719 743e
000000e0: 23f8 4e3d ada3 88bc b278 00be b22d 9ebe
000000f0: 7c14 57be 4419 97be 13d1 26be b2fc 413d
00000100: 7b51 aebc 5a16 d33d 69d1 a13e 5591 6bbd
00000110: 6879 d53d 9c17 81be b59b 553e 6811 a83e
00000120: a9f6 4c3c fbd8 44bb 0d49 c43e 382c 43be
00000130: b08c b1bd 8abf 00bf f360 2dbe 1c7e 83bd
00000140: 5c6b 9ebd b416 55be 2144 023e 0b9e febe
00000150: 1479 7a3b 2e37 ccbe 2be9 f33d 0cbf b8bd
00000160: 0e61 59be 140a 9ebd ca86 0fbf 7016 a73e
00000170: dcc0 b4be 3995 443d 469d aabe 7f81 a5bd
00000180: 200e 68bd 5715 1b3e 2598 79be e05c c1be
00000190: d24e e03d a16c 813d 746a ac3d b51e 18bc
000001a0: 662f 4bbe 81c6 3f3d 704a 90be 7854 3fbe
000001b0: cff2 ecbc abfb 873e 9fb0 93bd 4346 963e
000001c0: 9a9f 1e3c ae8a 843d d526 463d 462c 6fbe
000001d0: 4610 723d dcbf 1fbe 5155 443e a650 033e
000001e0: ce55 0c3e 7b69 323e be3f 5f3d 1b21 253e
000001f0: aef6 04bf 7061 473d f178 bc3d 37b5 60be
00000200: 7d8f 77bc 6ca4 82be 47ca 05bf 58e4 6d3e
00000210: 5502 ebbd be5d 4fbe e01e e7bb ae68 18bf
00000220: ed3f 303e 0671 073e f77f b93c 9866 2b3e
00000230: 4e36 453e 592a 053e e895 983e ed76 2b3b
00000240: 99eb 1ebe f30b 20be 81dd e03d 1314 b7bc
00000250: 1e85 04be 59c0 fcbd e6ed cfbd 6304 75bc
00000260: a897 7c3d 6027 803e 64d7 673e df78 01bf
00000270: a467 f8bd 8f5f acbf 5ed6 123d a9a6 d43d
00000280: 90f8 b3bd c19a 3ebe abba 97be 46e6 06be
00000290: a704 9dbc c199 82bd d7cb 4f3d e6e2 fd3c
000002a0: 226e d13d 9687 203d 3a9b 453d 207b bdbe
000002b0: c809 093e 6edc 4abd 3641 393e 6045 533e
000002c0: 3f04 a7bc 9501 013e 9a27 8c3e b1f9 e3bd
000002d0: 3e70 af3d 08fa 81be 3095 83bf 8a21 933b
000002e0: 1ab3 85ba 55cb 5a3e f732 f7be f573 63be
000002f0: 60ab cabc 2087 863d 9f42 283c f558 debc
00000300: 8d1a a0be f9a7 90bc 022d 91be c4e6 e2bd
00000310: 2d1d 743d 2464 73be 643b ddbe ba56 dabc
00000320: 71ad 57be 7e11 873e f2f8 eebe 6b78 79be
00000330: bfc7 21be e11c b83d 0ef3 a1bd a78c 01be
00000340: fa33 f43d 9155 dabe c095 6ebd 509b 843a
00000350: ade6 a2be 1cf1 80be ede8 07be a3bf cfbd
00000360: 37dc ccbc eec7 4fbe 0136 7f3d b267 3cbd
00000370: 53c6 94be 3dc8 e33d f99f d9bd 956a 013d
00000380: a354 64bc 8d44 0fbd 0355 0dbe 6486 35bd
00000390: 14cf 14be 43b0 8cbc 8b66 b6bd e939 493e
000003a0: 0221 68bc 690b c83d 52d4 2abd 0a70 2a3e
000003b0: 67be 9c3e 958e 59bd 8c20 e2bd 936c aabc
000003c0: a04e 443c 89cf f7bd 5f90 2bbe 8250 2d3b
000003d0: 4cdb b1bd c561 453e 6467 133f c91a 21be
000003e0: b604 13be 8195 913d 71bd a4bc 01e6 203f
000003f0: ec35 643e e6f5 ce3d 15d3 d7bd 1332 3bbe

fc1.bias f4 [64]
0.17085747 -0.116332285 -0.20048748 -0.055285707 0.22769246 -0.1637967 -0.109982036 -0.028702907
0.0009074233 -0.10491356 0.11507366 0.17680222 0.11606571 0.040091462 -0.123616524 -0.087929554
-0.008294788 -0.05587991 -0.020399017 -0.21163677 -0.04223693 -0.011820549 0.0012347455 -0.049881846
0.028762538 0.053512853 0.039450735 -0.12303321 0.20893283 -0.011288446 -0.09756601 -0.18746085
0.13568279 -0.024447283 -0.15529275 0.09823082 -0.044138294 -0.072187066 -0.11506871 -0.15827702
-0.025413131 -0.008939249 -0.12234363 0.02067518 -0.043551113 -0.18957543 -0.0064404006 -0.156972
-0.09919984 -0.050211143 -0.14839593 0.06429282 -0.109554134 -0.091620326 -0.25718752 -0.021075547
0.06420717 0.108870685 -0.2784129 -0.16608635 -0.015893705 0.05258009 -0.029307695 0.040271692
00000000: 43f5 2e3e 9f3f eebd 974c 4dbe 4473 62bd
00000010: 3628 693e 52ba 27be 433e e1bd 5c22 ebbc
00000020: 26e0 6d3a ecdc d6bd bdab eb3d a40b 353e
00000030: dcb3 ed3d f236 243d a92a fdbd 6914 b4bd
00000040: dde6 07bc 55e2 64bd d71b a7bc 4fb7 58be
00000050: a200 2dbd faaa 41bc 2fd7 a13a e850 4cbd
00000060: 6a9f eb3c 4b30 5b3d 1897 213d d6f8 fbbd
00000070: 7df2 553e 2df3 38bc b0d0 c7bd bdf5 3fbe
00000080: 6ef0 0a3e ab45 c8bc 1005 1fbe 3d2d c93d
00000090: 5bca 34bd d0d6 93bd 25a9 ebbd 5f13 22be
000000a0: 332f d0bc ee75 12bc 4c8f fabd ff5e a93c
000000b0: a762 32bd 1020 42be ff09 d3bb 45bd 20be
000000c0: 4929 cbbd 33aa 4dbd 1af5 17be f4ab 833d
000000d0: eb5d e0bd 70a3 bbbd 15ae 83be a0a6 acbc
000000e0: 0c7f 833d 98f7 de3d 238c 8ebe 8a12 2abe
000000f0: 8433 82bc 385e 573d b116 f0bc eef3 243d

fc2.weight f4 [64, 64]
0.030349357 -0.094113074 0.43398038 -0.11856837 0.15857415 -0.054394394 -0.25656608 0.19021101
0.17335433 0.10260919 0.18238044 -0.08765233 -0.32086092 -0.08059649 -0.22027364 -0.044889785
-0.1735654 0.13770379 0.13735053 0.19906081 -0.19747588 -0.0012044895 0.15555482 0.3112546
-0.070922785 0.034975793 0.11970052 -0.06580296 0.07746883 -0.5465112 0.11638504 -0.13520665
-0.013308991 0.23596552 -0.20667516 -0.2522037 -0.49527505 0.18972704 -0.09625359 -0.12314543
-0.10798181 -0.18871324 -0.20705035 -0.17058502 0.19552909 -0.4565461 -0.11152507 -0.089352906
-0.2424459 0.02994691 -0.10026525 -0.22855131 -0.19492732 -0.37352794 0.04314841 0.06264726
-0.38311133 0.10681577 -0.16592117 0.1960881 -0.16768174 0.28560805 0.025685774 -0.0911885
0.15193515 -0.26146704 -0.24461588 -0.45280823 -0.04103657 0.09041559 -0.48075795 0.20632175
-0.15216377 -0.33085793 -0.14478259 0.22633326 -0.3348145 -0.01890074 -0.06821509 0.098434016
-0.019317295 -0.07651413 -0.12249607 -0.40256146 -0.2930854 -0.2546757 0.12711467 -0.4112071
-0.071107514 0.2061 -0.20546518 -0.59733564 -0.15224542 -0.3621974 -0.16978566 -0.66682345
-0.12108371 -0.04336579 -0.06931208 -0.01427212 0.028274575 0.14022796 -0.012894646 -0.14762096
-0.21599491 0.15632431 -0.099594995 -0.27475703 -0.23588654 0.13157839 -0.42671585 -0.17478867
-0.1440474 0.12267616 -0.19655636 -0.060701277 -0.029608512 0.21443883 -0.01119314 -0.416681
0.0053711943 -0.08445303 0.085219204 0.26328722 -0.22672977 -0.083168946 -0.1296522 -0.0104416385
-0.4196312 -0.20722476 0.0272889 -0.017159363 -0.17694075 -0.124921195 -0.29458523 -0.4736395
0.12989436 -0.06128917 -0.013323087 -0.101168446 0.1578347 -0.22480625 -0.60026014 0.02259558
-0.24379049 -0.20040093 0.26348686 0.047440194 0.033018187 -0.1554009 -0.2829381 0.13615127
-0.41839555 -0.0176568 -0.1209724 -0.37473232 0.07150335 -0.61551785 -0.0076414202 -0.33661404
0.017658768 0.15857576 -0.04572832 0.18752971 0.13176182 0.0633174 -0.14145848 -0.017072445
0.36441305 -0.8189663 -0.004634109 -0.20628174 0.06351182 -0.039434094 0.030312061 -0.05103781
0.019688485 -0.5846882 -0.48078528 -0.21649358 -0.12933542 -0.22108342 -0.13348785 -0.4970682
-0.18646914 -0.45599708 0.22069493 0.05378978 0.06182645 0.05307762 -0.18813789 -0.77603227
0.060585193 -0.2709809 0.076743804 -0.14015307 -0.2513136 -0.071692795 -0.065702364 -0.16733809
-0.08330996 -0.25581658 0.056016646 0.1984285 -0.3349869 -0.022844203 0.21058084 0.09043528
-0.19681405 -0.3004264 0.16844125 -0.034646004 0.16667777 -0.106292225 -0.019955274 -0.29628778
0.11851095 0.3266458 0.21592745 0.08922769 0.18856591 -0.35228357 0.15170482 -0.18451066
0.24114163 -0.086588316 -0.22645658 0.20672089 -0.28370515 0.13755888 0.02627398 -0.1441213
0.09326489 -0.013742985 0.14535692 0.27043018 -0.2543799 0.15270345 -0.19589481 -0.06610013
-0.005641172 0.082235046 -0.4732387 -0.124909595 -0.02614971 -0.06759752 0.031202551 0.041510988
0.087082446 -0.41824126 -0.47525275 0.1913463 -0.13044344 0.04376354 -0.17589481 0.019895388
00000000: 379f f83c 5bbe c0bd ad32 de3e f9d3 f2bd
00000010: 4361 223e a8cc 5ebd a15c 83be adc6 423e
00000020: cc83 313e c424 d23d f0c1 3a3e 1183 b3bd
00000030: e247 a4be c60f a5bd 6a8f 61be 5ade 37bd
00000040: 21bb 31be 3902 0d3e 9ea5 0c3e 99d6 4b3e
00000050: 1e37 4abe f6df 9dba c349 1f3e c35c 9f3e
00000060: f73f 91bd c742 0f3d 8c25 f53d b4c3 86bd
00000070: faa7 9e3d 28e8 0bbf 485b ee3d 9d73 0abe
00000080: f40d 5abc f2a0 713e a7a2 53be d820 81be
00000090: b194 fdbe ce47 423e 9a20 c5bd ac33 fcbd
000000a0: 9125 ddbd 0b3e 41be 0205 54be d7ad 2ebe
000000b0: c738 483e 69c0 e9be 4267 e4bd a8fe b6bd
000000c0: bd43 78be 3953 f53c de57 cdbd 5b09 6abe
000000d0: 079b 47be 0e3f bfbe 63bc 303d 354d 803d
000000e0: 2b27 c4be 3ac2 da3d 3de7 29be 52cb 483e
000000f0: c3b4 2bbe 383b 923e f96a d23c 09c1 babd
00000100: e394 1b3e 02df 85be 967c 7abe 7bd6 e7be
00000110: f615 28bd cf2b b93d e825 f6be 0246 533e
00000120: d2d0 1bbe 3666 a9be e341 14be e8c3 673e
00000130: ce6c abbe bad5 9abc 5ab4 8bbd c697 c93d
00000140: 4e3f 9ebc 71b3 9cbd 38df fabd 891c cebe
00000150: 4a0f 96be da64 82be 592a 023e bd89 d2be
00000160: d1a0 91bd e10b 533e 7765 52be fdea 18bf
00000170: 39e6 1bbe f071 b9be 4bdc 2dbe f1b4 2abf
00000180: bcfa f7bd 54a0 31bd 7ef3 8dbd 9cd5 69bc
00000190: 15a0 e73c eb97 0f3e 1144 53bc f329 17be
000001a0: c52d 5dbe 7b13 203e 76f8 cbbd f4ac 8cbe
000001b0: 3e8c 71be 7cbc 063e 807a dabe cdfb 32be
000001c0: 2981 13be a33d fb3d 1246 49be e7a1 78bd
000001d0: 8d8d f2bc da95 5b3e 6f63 37bc 3657 d5be
000001e0: d800 b03b b6f5 acbd 6887 ae3d 95cd 863e
000001f0: d92b 68be 7b54 aabd 8cc3 04be 6813 2bbc
00000200: e7d9 d6be ba32 54be f98c df3c cb91 8cbc
00000210: f52f 35be afd6 ffbd e0d3 96be e080 f2be
00000220: 0703 053e 5a0a 7bbd 1449 5abc 6731 cfbd
00000230: 6b9f 213e 9c33 66be a6aa 19bf 5e1a b93c
00000240: 37a4 79be e735 4dbe c0e7 863e a650 423d
00000250: 143e 073d 6a21 1fbe 43dd 90be 3d6b 0b3e
00000260: f137 d6be fea4 90bc 61c0 f7bd eadc bfbe
00000270: 5970 923d 9492 1dbf e164 fabb ad58 acbe
00000280: 1fa9 903c af61 223e 9e4d 3bbd ca07 403e
00000290: 92ec 063e 8eac 813d 7eda 10be 83db 8bbc
000002a0: 5994 ba3e c7a7 51bf b9d9 97bb 853b 53be
000002b0: 7c12 823d a585 21bd 0051 f83c 060d 51bd
000002c0: bf49 a13c 20ae 15bf 7d29 f6be 7eb0 5dbe
000002d0: 8170 04be b163 62be 0ab1 08be b97f febe
000002e0: c4f1 3ebe 7378 e9be dafd 613e ac52 5c3d
000002f0: bb3d 7d3d eb67 593d 38a7 40be 0daa 46bf
00000300: 2e28 783d 02be 8abe db2b 9d3d 4984 0fbe
00000310: 2dac 80be acd3 92bd f68e 86bd ad5a 2bbe
00000320: 6a9e aabd 64fa 82be b671 653d d730 4b3e
00000330: 6783 abbe c423 bbbc 81a2 573e 2236 b93d
00000340: 9f89 49be 7dd1 99be dd7b 2c3e f8e8 0dbd
00000350: 94ad 2a3e bdaf d9bd 3e79 a3bc 08b3 97be
00000360: deb5 f23d 1e3e a73e 161c 5d3e 02bd b63d
00000370: 6c17 413e 835e b4be 8258 1b3e 5df0 3cbe
00000380: d5ed 763e 3755 b1bd 3ce4 67be a4ae 533e
00000390: cd41 91be 3cdc 0c3e 883c d73c 8994 13be
000003a0: aa01 bf3d 422a 61bc 72d8 143e d375 8a3e
000003b0: 153e 82be 4b5e 1c3e a698 48be 815f 87bd
000003c0: 95d9 b8bb d96a a83d 584c f2be 9ad0 ffbd
000003d0: eb37 d6bc 9270 8abd 7e9c ff3c 6d07 2a3d
000003e0: 4858 b23d b823 d6be 5454 f3be 49f0 433e
000003f0: f792 05be 6641 333d c51d 34be a7fb a23c

fc2.bias f4 [64]
-0.10908111 -0.14248613 -0.063729934 0.085320815 0.10609987 -0.21606722 -0.15971754 0.008994169
0.008471432 0.07574558 -0.17679709 0.07037865 -0.019780291 -0.130229 -0.10368057 0.068462685
-0.034286037 -0.14236623 -0.11076669 -0.20304364 0.055386093 0.039777704 -0.05553218 -0.17143872
-0.236615 -0.09431706 0.13177305 -0.090792015 -0.03080717 0.21829985 0.10550642 -0.106143445
-0.043919805 -0.040246714 -0.07150069 -0.09090826 -0.16254455 -0.14353335 -0.06151918 0.07383397
-0.10235896 0.15926279 0.021729706 -0.084804505 -0.017196909 -0.07873864 -0.18095653 -0.14976478
0.09498977 -0.12343649 -0.111856304 0.103926376 -0.1048254 0.049925897 -0.123935565 -0.108453505
-0.08067279 -0.13181753 0.05294583 -0.06634724 0.09874665 0.08953051 0.04224063 -0.14354762
00000000: eb65 dfbd e2e7 11be d784 82bd aebc ae3d
00000010: e34a d93d ba40 5dbe ff8c 23be 475c 133c
00000020: c3cb 0a3c 8020 9b3d 4c0a 35be af22 903d
00000030: 470a a2bc c05a 05be 7b56 d4bd 2a36 8c3d
00000040: 846f 0cbd 74c8 11be a5d9 e2bd acea 4fbe
00000050: 87dc 623d f2ed 223d b675 63bd a28d 2fbe
00000060: 344b 72be 4e29 c1bd 84ef 063e 2af1 b9bd
00000070: 515f fcbc ff89 5f3e c013 d83d bc61 d9bd
00000080: 41e5 33bd bdd9 24bd f46e 92bd 1c2e babd
00000090: 1472 26be 68fa 12be 89fb 7bbd 4436 973d
000000a0: 93a1 d1bd c915 233e 7f02 b23c fcad adbd
000000b0: 88e0 8cbc b941 a1bd ab4c 39be f05b 19be
000000c0: ff89 c23d 45cc fcbd eb14 e5bd 5ad7 d43d
000000d0: b3ae d6bd 197f 4c3d eed1 fdbd df1c debd
000000e0: c737 a5bd 2dfb 06be badd 583d 10e1 87bd
000000f0: af3b ca3d c65b b73d 8304 2d3d 26fe 12be

fc3_1.weight f4 [32, 64]
-0.24512817 0.12336099 0.041327532 -0.020036431 0.01179044 -0.2595308 -0.08071344 0.096867785
0.03352164 0.1595421 -0.022970125 0.016289031 -0.039291188 0.18314527 -0.027419457 0.06168548
-0.4406907 0.09138616 0.40867332 -0.16085336 0.16371714 0.018235132 -0.09763038 -0.21438228
-0.08271874 0.26611215 -0.5876186 -0.08842895 -0.017233586 -0.18742445 -0.28988242 0.10527351
-0.03828927 -0.042616412 -0.28581142 -0.07218006 0.20909327 0.06764837 0.08426536 0.10386497
0.31360364 -0.19801334 -0.030178165 0.32041496 0.16273889 -0.14513564 -0.023637848 0.19559798
-0.20245773 0.123261064 0.18893565 0.18143004 0.02760246 -0.012945289 -0.06969324 0.049606167
-0.35043672 0.30970407 -0.026744736 0.29468203 -0.17415904 -0.045169648 -0.13641033 -0.029995611
-0.10750686 0.17904937 0.3759051 0.012457017 -0.29222837 -0.031540588 0.101893015 0.07441913
-0.009878287 -0.08675054 -0.12037474 0.22084844 0.07221949 0.15963353 -0.03568368 0.07152981
-0.026577149 0.03671969 -0.18737243 -0.45062256 0.20353167 0.12084481 -0.08124607 0.3406567
-0.11192314 -0.21932812 -0.005957102 -0.009412245 0.059107106 0.13298622 0.07537222 0.02001611
-0.17852122 0.28896022 0.3701511 0.06545402 0.18722783 -0.3012271 0.37354818 0.09916845
0.28380528 0.20179245 -0.32638377 -0.20462649 0.27203557 -0.20520301 -0.26957092 0.020148596
0.13484807 -0.12312346 0.18276222 -0.20290004 -0.15743144 0.21043055 0.12184804 0.36002713
-0.13620336 -0.1952388 0.28159449 0.057683833 -0.26969478 -0.085635446 -0.0697832 0.3701615
-0.12567025 0.065257624 0.26336348 -0.19403611 0.25134936 -0.057638668 0.14426173 0.12253598
0.07263179 -0.07993856 -0.24606134 0.32902536 0.11337227 -0.24702437 -0.08386434 0.16841154
0.10660447 -0.040076688 -0.32165134 -0.45774707 0.020612953 0.043693416 -0.06421827 0.28068835
-0.017094236 -0.07122673 -0.11042162 -0.037496947 0.2644636 0.17423637 -0.19255261 -0.1768872
-0.12893644 0.26627204 0.25589132 0.2269194 -0.012625483 -0.17208779 0.42292082 0.041335564
0.28667352 0.06591581 0.0010752002 -0.2620972 0.3014043 0.02621077 0.24818619 -0.121508606
0.22875723 0.04401321 0.16772889 -0.07176834 -0.108530656 0.0069911857 0.120902784 -0.14439507
-0.16911443 -0.22181995 -0.072913066 -0.18326227 0.11896497 0.14259982 -0.28716826 0.28083932
-0.03691838 0.28408137 -0.041214827 -0.04043441 -0.13620499 -0.05992233 0.00076511386 0.15715477
-0.025741782 0.07245543 0.036676213 -0.06264206 -0.00708523 0.030694617 0.05926323 -0.1994889
0.02712327 0.012055756 0.069259234 0.16653517 -0.05545927 -0.030370705 0.0016853239 0.015081862
-0.057973176 -0.11757838 -0.022744996 0.051036816 0.08608203 -0.26454332 -0.4218664 -0.13376608
0.04527464 -0.034585398 -0.102481715 -0.024171388 -0.13484684 -0.10293907 0.04868673 -0.05343546
-0.23166129 0.054138377 0.052032858 -0.07606142 -0.11160368 0.0371192 0.03272724 0.020434642
-0.28039166 0.08845751 0.0034991852 -0.08701363 -0.18538402 -0.25484532 0.11140922 0.06828465
-0.11729877 -0.18375388 -0.10324137 -0.07738575 -0.0880547 -0.23449038 -0.09256076 -0.10902901
00000000: e102 7bbe b0a4 fc3d 0f47 293d 7123 a4bc
00000010: b12c 413c 39e1 84be 174d a5bd 9e62 c63d
00000020: fd4d 093d 015f 233e d82b bcbc 9370 853c
00000030: ccef 20bd 6f8a 3b3e c59e e0bc eaa9 7c3d
00000040: 36a2 e1be ab28 bb3d a13d d13e beb6 24be
00000050: 77a5 273e d861 953c 70f2 c7bd 0787 5bbe
00000060: 7168 a9bd da3f 883e 2c6e 16bf 3d1a b5bd
00000070: 732d 8dbc 32ec 3fbe 786b 94be a399 d73d
00000080: 36d5 1cbd 8c8e 2ebd e055 92be 24d3 93bd
00000090: 8c1c 563e 3b8b 8a3d 5193 ac3d 28b7 d43d
000000a0: a890 a03e 02c4 4abe 3338 f7bc 6e0d a43e
000000b0: 06a5 263e 709e 14be 29a4 c1bc d64a 483e
000000c0: 1451 4fbe 4c70 fc3d 5978 413e ccc8 393e
000000d0: 8e1e e23c 7a18 54bc 54bb 8ebd d62f 4b3d
000000e0: 716c b3be 8891 9e3e c717 dbbc 90e0 963e
000000f0: bf56 32be cf03 39bd 26af 0bbe 5bb9 f5bc
00000100: 8e2c dcbd b858 373e a276 c03e 8418 4c3c
00000110: f59e 95be b430 01bd 49ad d03d 0f69 983d
00000120: 8ad8 21bc 44aa b1bd 0887 f6bd 1826 623e
00000130: d0e7 933d f976 233e 0d29 12bd 397e 923d
00000140: 52b8 d9bc 6367 163d 8fde 3fbe 00b8 e6be
00000150: 9b6a 503e 7c7d f73d 5764 a6bd 8e6a ae3e
00000160: f637 e5bd 8d97 60be cb33 c3bb d135 1abc
00000170: 4b1a 723d 8a2d 083e c05c 9a3d d3f8 a33c
00000180: 44ce 36be 98f2 933e 7284 bd3e c20c 863d
00000190: a7b8 3f3e 703a 9abe b541 bf3e d418 cb3d
000001a0: ed4e 913e aea2 4e3e c61b a7be 9b89 51be
000001b0: 3f48 8b3e bd20 52be 3305 8abe ab0e a53c
000001c0: 9d15 0a3e 2728 fcbd 0526 3b3e 07c5 4fbe
000001d0: b535 21be 1b7b 573e 778b f93d 7a55 b83e
000001e0: e578 0bbe aeec 47be 272d 903e e245 6c3d
000001f0: 6f15 8abe a361 afbd 7fea 8ebd cf85 bd3e
00000200: b4af 00be caa5 853d 94d7 863e 67b1 46be
00000210: ddb0 803e 8616 6cbd 59b9 133e 25f4 fa3d
00000220: fabf 943d d4b6 a3bd 81f7 7bbe 0376 a83e
00000230: b82f e83d f5f3 7cbe 11c1 abbd 1374 2c3e
00000240: 7253 da3d 7427 24bd 7caf a4be d35d eabe
00000250: 7fdc a83c def7 323d de84 83bd 62b6 8f3e
00000260: 3609 8cbc 52df 91bd bb24 e2bd 6696 19bd
00000270: c667 873e 056b 323e 832c 45be eb21 35be
00000280: ea07 04be cf54 883e 3004 833e 8f5d 683e
00000290: 1ddb 4ebc c837 30be 1489 d83e 7b4f 293d
000002a0: dfc6 923e defe 863d bbed 8c3a 9b31 86be
000002b0: aa51 9a3e f8b7 d63c 8524 7e3e 81d9 f8bd
000002c0: 563f 6a3e 3247 343d 1fc1 2b3e 48fb 92bd
000002d0: 5245 debd 5116 e53b e19b f73d 4ddc 13be
000002e0: 552c 2dbe c524 63be 7253 95bd 1ba9 3bbe
000002f0: e8a3 f33d b005 123e b807 93be 2cca 8f3e
00000300: ba37 17bd 1d73 913e e1d0 28bd 8d9e 25bd
00000310: 5279 0bbe 1e71 75bd ec91 483a 2eed 203e
00000320: 6ee0 d2bc 8363 943d cc39 163d 7b4a 80bd
00000330: 382b e8bb 4773 fb3c 00be 723d d146 4cbe
00000340: 9f31 de3c 8185 453c c9d7 8d3d 3288 2a3e
00000350: 4229 63bd fccb f8bc 16e6 dc3a ea19 773c
00000360: 4875 6dbd efcc f0bd b753 babc fb0b 513d
00000370: c64b b03d 3972 87be dffe d7be faf9 08be
00000380: e771 393d 6ba9 0dbd efe1 d1bd 1303 c6bc
00000390: 4a15 0abe b8d1 d2bd bd6b 473d 24df 5abd
000003a0: 9e38 6dbe 34c0 5d3d 6820 553d 17c6 9bbd
000003b0: 7890 e4bd 4d0a 183d 000d 063d 8d66 a73c
000003c0: 7f8f 8fbe 3629 b53d 9652 653b 3434 b2bd
000003d0: 4fd5 3dbe 167b 82be 842a e43d d3d8 8b3d
000003e0: 563a f0bd fa29 3cbe 3670 d3bd 6c7c 9ebd
000003f0: 0656 b4bd 3f1e 70be 7f90 bdbd 9a4a dfbd

fc3_1.bias f4 [32]
0.22040817 -0.009048224 0.0691421 -0.12967494 -0.20681441 0.03328389 -0.21646366 -0.100118645
-0.107220374 -0.05405299 0.055386767 -0.13566412 0.17899682 0.1437679 0.12696257 -0.19344193
-0.21736798 -0.07363664 0.49418435 0.44057938 0.4819943 0.05145681 -0.049655158 0.47562602
0.039804026 -0.025805498 0.21911544 -0.036289062 0.34689653 -0.21010068 -0.049305514 -0.114763536
00000000: aeb2 613e 013f 14bc 609a 8d3d 82c9 04be
00000010: 28c7 53be b054 083d a6a8 5dbe 010b cdbd
00000020: 5b96 dbbd ab66 5dbd 3cdd 623d 89eb 0abe
00000030: f14a 373e e437 133e 7a02 023e a415 46be
00000040: b695 5ebe cfce 96bd bb05 fd3e 9f93 e13e
00000050: f5c7 f63e 60c4 523d 3563 4bbd 4185 f33e
00000060: 8c09 233d 0d66 d3bc cc5f 603e d7a3 14bd
00000070: 6c9c b13e a224 57be 94f4 49bd 2509 ebbd

fc4_1.weight f4 [1, 32]
0.38667944 -0.07839089 -0.17210773 0.10667869 -0.25838038 0.14865431 -0.50625795 0.42609733
-0.28776574 -0.30228215 0.42394632 -0.35369202 0.11586925 0.46552324 0.20510799 -0.37680468
0.08898739 -0.05050951 0.30801764 0.18910453 0.27901152 0.35937402 0.21376675 0.23499079
0.38893473 -0.07995053 0.32346675 -0.26304543 0.23658748 -0.2522891 0.26517567 0.28210548
00000000: d9fa c53e 678b a0bd 023d 30be 5b7a da3d
00000010: 6f4a 84be d638 183e 1f9a 01bf 6e29 da3e
00000020: 0856 93be bac4 9abe 7e0f d93e 1f17 b5be
00000030: db4c ed3d 1059 ee3e d407 523e 8bec c0be
00000040: 053f b63d 0fe3 4ebd 7db4 9d3e 9ea4 413e
00000050: 99da 8e3e dfff b73e ace5 5a3e 6da1 703e
00000060: 7422 c73e 1abd a3bd 6f9d a53e e4ad 86be
00000070: fd43 723e 092c 81be 1bc5 873e 2170 903e

fc3_2.weight f4 [32, 64]
0.119466804 0.011802454 -0.11905442 0.16771814 -0.17594482 -0.1534773 -0.22953457 -0.06574966
-0.41384828 0.30054218 0.096071295 0.6350116 0.22830693 0.046820708 0.07629745 0.09231071
-0.26817545 -0.09964414 -0.12012948 -0.087779455 -0.29565743 0.1174866 -0.07995607 0.31218117
0.46328786 -0.054647 0.040241495 0.04183371 0.024770683 -0.23244424 -0.2157259 -0.33164656
-0.06231718 0.21770597 -0.25339404 0.043887906 0.24003513 -0.4403887 0.22332661 0.12803462
-0.22787046 0.1641355 0.28009406 -0.46133763 0.23454411 0.06889125 -0.15235828 0.476032
-0.1534504 0.16873488 0.19959411 -0.02779509 -0.21706513 0.015840871 -0.102160685 0.12780811
-0.10123747 0.05086604 -0.09460701 0.08851964 0.035166103 0.16535546 -0.14081597 0.21170405
0.14294381 0.1441781 0.006831846 0.19765383 -0.15852666 0.03200807 -0.17044969 0.3146288
-0.2675261 0.103177845 -0.50188667 0.5452666 -0.41963014 -0.40409037 -0.036065787 -0.08924597
0.23373485 0.06101242 -0.08620924 -0.2339235 0.026262939 0.35172254 -0.22997148 0.47899958
-0.018885951 -0.050665952 0.00049182586 -0.07680893 -0.08528818 -0.16866416 -0.1413672 0.13186496
-0.26026154 -0.11628441 0.20101367 0.3221323 0.2940508 -0.08191351 -0.027878523 -0.018868437
0.56865436 -0.16583133 0.037384104 0.1727457 0.26841098 -0.12333302 0.115831785 -0.21865436
0.029282093 -0.12869385 0.2210241 -0.37345925 0.1854128 0.11267439 0.30828848 0.0247027
-0.42067012 0.40837994 0.29296327 -0.29944208 -0.6814131 -0.28146732 -0.112719335 0.031482514
-0.1557573 -0.24873622 0.13898852 0.003239234 0.16309871 -0.37607813 -0.18156976 0.17560953
-0.014374647 -0.019182427 -0.0459156 0.26897624 -0.08608561 0.27500606 0.07516388 -0.13123628
0.23685113 -0.07795915 -0.12682077 -0.055901702 -0.043110695 -0.073426634 -0.24473955 0.15287821
0.121840104 -0.2682286 0.21060026 0.06093008 0.040338103 0.10956305 -0.2474565 -0.14618976
0.39132 0.34329107 -0.17838922 0.21133469 0.3042894 -0.08163049 -0.040567312 -0.098071545
0.48646927 0.051977046 -0.044950068 -0.06382404 -0.07140805 0.26459906 0.25295374 0.0050120815
0.1696923 -0.12439058 0.37074572 0.22545324 0.12079595 -0.07205518 -0.028097613 -0.048748184
-0.13286495 0.32494393 0.46091014 0.013693121 0.09789153 0.11300169 -0.019218879 0.2830858
0.0055687176 -0.10160735 0.07228249 -0.3554375 -0.16175327 0.11420331 -0.14489193 -0.20809527
-0.19701922 0.2660915 0.038446765 -0.15171145 -0.048283808 -0.1968662 0.11320025 0.025641708
-0.08597946 0.07076572 0.042347904 0.06008323 -0.34164405 -0.008071912 0.025932021 0.022852812
0.08734917 0.20832832 -0.089748174 -0.034004882 -0.115813926 -0.111020416 -0.11584515 0.13981685
-0.042329747 0.01598755 0.016125098 -0.08218373 -0.21556681 0.38120255 -0.07468957 -0.13532741
-0.027262097 -0.25329834 -0.07881087 0.025365278 -0.03955639 -0.09536612 0.15043171 -0.08783349
-0.20120294 0.15011731 0.0007153878 0.113036565 0.06257279 0.1135305 -0.01617355 0.20247872
0.039862487 0.013851186 0.002216478 0.15800649 -0.13596506 -0.07746535 -0.14520201 0.014956385
00000000: 03ab f43d 145f 413c ced2 f3bd 4ebe 2b3e
00000010: e12a 34be 2729 1dbe 1c0b 6bbe c2a7 86bd
00000020: ece3 d3be aae0 993e 07c1 c43d 1f90 223f
00000030: 4bc9 693e 12c7 3f3d d641 9c3d 660d bd3d
00000040: 4b4e 89be 3a12 ccbd 7206 f6bd b7c5 b3bd
00000050: 6960 97be d19c f03d 02c0 a3bd 36d6 9f3e
00000060: 1134 ed3e 88d5 5fbd 44d4 243d d359 2b3d
00000070: e3eb ca3c dd05 6ebe 40e7 5cbe 94cd a9be
00000080: 4d40 7fbd 50ee 5e3e ddbc 81be cec3 333d
00000090: c5cb 753e a17a e1be bbaf 643e 821b 033e
000000a0: e056 69be 2313 283e 7d68 8f3e 7234 ecbe
000000b0: 552c 703e db16 8d3d cf03 1cbe 77ba f33e
000000c0: 1a22 1dbe d6c8 2c3e 6662 4c3e 87b2 e3bc
000000d0: 5246 5ebe b7c4 813c 9f39 d1bd 21e0 023e
000000e0: 9755 cfbd e958 503d 52c1 c1bd c949 b53d
000000f0: 550a 103d f152 293e 1032 10be f2c8 583e
00000100: dd5f 123e 6da3 133e aedd df3b c465 4a3e
00000110: d054 22be e51a 033d 5d8a 2ebe 0717 a13e
00000120: 2ef9 88be e84e d33d a57b 00bf 9896 0b3f
00000130: c3d9 d6be efe4 cebe b8b9 13bd 97c6 b6bd
00000140: 3058 6f3e 29e8 793d 788e b0bd a489 6fbe
00000150: 6025 d73c fa14 b43e a57d 6bbe 6f3f f53e
00000160: b6b6 9abc 1a87 4fbd e0ed 003a 004e 9dbd
00000170: 92ab aebd 4cb6 2cbe 90c2 10be 9c07 073e
00000180: 0041 85be 8526 eebd 87d6 4d3e 86ee a43e
00000190: d48d 963e 45c2 a7bd 8061 e4bc fb91 9abc
000001a0: 5593 113f b0cf 29be 1320 193d 40e4 303e
000001b0: 2a6d 893e 0696 fcbd 3739 ed3d eee6 5fbe
000001c0: 00e1 ef3c 52c8 03be 2454 623e 0d36 bfbe
000001d0: dadc 3d3e d5c1 e63d fdd7 9d3e 515d ca3c
000001e0: 1362 d7be 2d17 d13e 48ff 953e 7950 99be
000001f0: 1771 2ebf 7c1c 90be 65d9 e6bd cff3 003d
00000200: d77e 1fbe b5b4 7ebe 0253 0e3e 5449 543b
00000210: 5903 273e 508d c0be 6ced 39be fcd2 333e
00000220: a483 6bbc 7724 9dbc ff11 3cbd 41b7 893e
00000230: a74d b0bd 98cd 8c3e 85ef 993d ce62 06be
00000240: 1a89 723e 0ca9 9fbd 4edd 01be 2ff9 64bd
00000250: d794 30bd b460 96bd 019d 7abe 1b8c 1c3e
00000260: 4e87 f93d 4255 89be 98a7 573e d291 793d
00000270: 9139 253d 9862 e03d 3d65 7dbe c5b2 15be
00000280: 185b c83e d9c3 af3e aaab 36be 1f68 583e
00000290: d2cb 9b3e e32d a7bd e929 26bd bcd9 c8bd
000002a0: 8012 f93e e2e5 543d 901d 38bd 2eb6 82bd
000002b0: 623e 92bd 8779 873e 2783 813e 633c a43b
000002c0: d1c3 2d3e 7dc0 febd 62d2 bd3e 37dd 663e
000002d0: de63 f73d ab91 93bd f72c e6bc 2dac 47bd
000002e0: c00d 08be 0d5f a63e 6afc eb3e 1d59 603c
000002f0: 5b7b c83d 6e6d e73d e970 9dbc 9ff0 903e
00000300: ca79 b63b 8417 d0bd d808 943d e7fb b5be
00000310: a6a2 25be 6de3 e93d 8d5e 14be ed16 55be
00000320: 68bf 49be 253d 883e 5b7a 1d3d 3f5a 1bbe
00000330: 3ec5 45bd 4b97 49be 88d5 e73d 8f0e d23c
00000340: 0016 b0bd 9eed 903d ff74 2d3d d519 763d
00000350: f8eb aebe 0e40 04bc 646f d43c d235 bb3c
00000360: 1fe4 b23d 0554 553e e4cd b7bd b448 0bbd
00000370: da2f edbd ac5e e3bd 3940 edbd 262c 0f3e
00000380: f561 2dbd 53f8 823c c818 843c f24f a8bd
00000390: 8cbd 5cbe fb2c c33e d8f6 98bd 4593 0abe
000003a0: c354 dfbc 52b0 81be 9867 a1bd d8ca cf3c
000003b0: e205 22bd 504f c3bd c50a 1a3e 0be2 b3bd
000003c0: 2508 4ebe 5ab8 193e dd88 3b3a b77f e73d
000003d0: 2a26 803d ae82 e83d 657e 84bc 9556 4f3e
000003e0: d946 233d 16f0 623c 5542 113b 74cc 213e
000003f0: 6d3a 0bbe 27a6 9ebd d6af 14be a00b 753c

fc3_2.bias f4 [32]
-0.15577246 -0.14155664 0.14483382 -0.256869 0.05859084 0.12479858 -0.085212685 0.08434165
0.038940825 -0.05629809 -0.22833739 -0.20425509 0.06867789 0.10473358 -0.05712551 -0.0038822787
-0.14172424 0.08739594 -0.15205307 0.076175556 0.2004633 -0.11893077 -0.096654356 0.053730644
0.0023603234 0.15253119 -0.06438572 0.049107812 0.06438284 -0.29399124 -0.119732015 0.06848524
00000000: d182 1fbe 39f4 10be 514f 143e 5584 83be
00000010: f3fc 6f3d 6696 ff3d fd83 aebd 51bb ac3d
00000020: 6a80 1f3d d398 66bd 47d1 69be 3f28 51be
00000030: fea6 8c3d 8f7e d63d 70fc 69bd d46d 7ebb
00000040: 2920 11be a5fc b23d cdb3 1bbe ee01 9c3d
00000050: 4046 4d3e fa91 f3bd b8f2 c5bd aa14 5c3d
00000060: a8af 1a3b 2331 1c3e a9dc 83bd 4625 493d
00000070: 27db 833d 0586 96be 0f36 f5bd fd41 8c3d

fc4_2.weight f4 [4, 32]
-0.42232957 0.59400296 0.22838692 -0.06477501 0.34786466 -0.06874539 0.19645132 -0.23214708
-0.004805666 0.13929954 -0.33648962 0.49379018 0.07744796 -0.3410816 0.23649603 -0.05897824
0.0413019 0.33488512 -0.24051933 -0.14496315 -0.31620988 0.1253505 -0.1212745 0.1493816
-0.29041046 0.08652073 0.07194159 -0.005801574 0.06475354 0.012279985 -0.29269463 -0.016417818
0.34116963 0.12291065 0.083744556 -0.1357154 -0.023279086 -0.12949601 0.4402771 -0.00018135019
-0.03750427 -0.10258178 0.024389626 -0.3458635 0.16113432 -0.19782637 0.17959712 -0.3024583
0.10786968 -0.055324893 -0.10158346 0.03631235 0.0073602744 0.12830164 -0.060604382 -0.06325568
0.1009547 0.0955211 0.4109244 0.22504562 0.09880619 0.07962213 -0.14562862 0.2579867
0.063686654 -0.71600777 -0.053560738 -0.20895462 -0.12527178 0.19098316 -0.21147399 0.33447772
-0.11366453 -0.49349216 -0.27039576 -0.2856597 -0.09275643 0.008632222 -0.029922038 0.18854794
-0.42568058 -0.14842105 0.27108893 0.0762391 0.15051678 -0.020649076 -0.3870953 0.025149174
-0.97429204 -0.012958186 -0.46159092 -0.08995433 0.27382487 -0.57762444 0.25847688 -0.3320875
-0.32988647 0.5727065 -0.015928278 0.20878412 -0.17654109 0.043644242 -0.43045405 -0.33204165
0.12151972 0.36505756 0.2505116 0.8306198 -0.01677336 0.09858638 -0.10881031 -0.07688113
0.11759139 -0.09459285 0.0051030484 0.3292503 -0.0422005 -0.3228105 0.043698445 -0.15630049
0.39870948 -0.3298449 0.38988456 -0.21808924 -0.18426104 0.21417494 -0.24231026 0.3515037
00000000: 953b d8be 9410 183f 43de 693e c3a8 84bd
00000010: 511b b23e 62ca 8cbd 892a 493e f7b7 6dbe
00000020: d978 9dbb 8aa4 0e3e 5e48 acbe 11d2 fc3e
00000030: 099d 9e3d 3fa2 aebe 042c 723e 2b93 71bd
00000040: 2e2c 293d 1076 ab3e b34a 76be 3871 14be
00000050: 43e6 a1be e25b 003e c45e f8bd 7df7 183e
00000060: aeb0 94be c831 b13d 1d56 933d 211b bebb
00000070: 819d 843d fd31 493c 12dc 95be a97e 86bc
00000080: c9ad ae3e 94b8 fb3d 4482 ab3d faf8 0abe
00000090: c8b3 bebc 9a9a 04be 006c e13e d228 3eb9
000000a0: 149e 19bd 6516 d2bd c1cc c73c 0515 b1be
000000b0: 6500 253e ff92 4abe 4fe8 373e d0db 9abe
000000c0: c7ea dc3d 5b9c 62bd fd0a d0bd 42bc 143d
000000d0: 752e f13b 8161 033e 4d3c 78bd 328c 81bd
000000e0: 56c1 ce3d 91a0 c33d af64 d23e 5c72 663e
000000f0: e65a ca3d ed10 a33d ab1f 15be d516 843e
00000100: 266e 823d 494c 37bf 8162 5bbd 33f8 55be
00000110: 3f47 00be 1791 433e a38c 58be aa40 ab3e
00000120: f3c8 e8bd 01ab fcbe 5071 8abe fd41 92be
00000130: 15f7 bdbd 2a6e 0d3c 101f f5bc b612 413e
00000140: cef2 d9be b0fb 17be 2bcc 8a3e 3f23 9c3d
00000150: 1221 1a3e 4028 a9bc 5b31 c6be a405 ce3c
00000160: 346b 79bf 924e 54bc a555 ecbe fa39 b8bd
00000170: c632 8c3e 32df 13bf 1557 843e 5f07 aabe
00000180: e1e6 a8be e59c 123f 057c 82bc 81cb 553e
00000190: 30c7 34be 4ec4 323d 7964 dcbe 5d01 aabe
000001a0: 55df f83d d3e8 ba3e 0e43 803e 80a3 543f
000001b0: 4968 89bc a8e7 c93d f1d7 debd db73 9dbd
000001c0: c1d3 f03d e5b9 c1bd 7937 a73b 7f93 a83e
000001d0: 6eda 2cbd 6b47 a5be 24fd 323d 3c0d 20be
000001e0: a623 cc3e 6ee1 a8be f39e c73e c952 5fbe
000001f0: edae 3cbe ad50 5b3e 2e20 78be 4bf8 b33e

fc4_2.bias f4 [4]
0.1078557 -0.03768573 0.015110388 0.099605724
00000000: 73e3 dc3d 5a5c 1abd 9091 773c 16fe cb3d
