checkpoint.pth (torch_old, 45474 bytes, 11 tensors)

fc1.weight f4 [64, 37]
00000000: 4084 aabd 9a55 b6bd d1c8 003d a601 b13c
00000010: 0b2e dc3d 15f9 063e e19b 9abc 72cb 953e
00000020: bc02 adbc 0249 e5bd 0969 3a3d 4cbd cdbd
00000030: 8be4 fabd 3195 1dbe f095 10be a881 353d
00000040: d7f4 463c 1812 d03d 3de2 8e3d 7349 a3bd
00000050: 2c47 4d3e 146b 4e3d 7cc1 bc3c c3b0 9b3c
00000060: 6273 b4be da24 3fbd 40a8 363d 21b2 05bd
00000070: aeab 693d 3659 f93d 990a 2e3e 0abc 083e
00000080: 0b6a f5be d2a4 fcbd 07a1 25bf 40e6 9bbd
00000090: ec41 853b 5f98 023e 8a14 353c 153e ff3c
000000a0: e51f 18be b91b d8bd e2a3 fabb b30b 8ebe
000000b0: 4860 3abe 8c7a d3bd a03b 633e fc3a 253d
000000c0: 7dc4 0ebe a109 293c 6996 a53d 4377 c73d
000000d0: 9a40 03bc 5971 01be cdef 303e a21d 39bc
000000e0: 0ede e43c fc31 63be 698f 4ebd 2009 1abe
000000f0: 8bec 3c3d 952c f83d c752 1fbe c7da b1bd
00000100: d744 1c3e b790 303d 051c 9d3e 4e36 fa3b
00000110: e676 14bd 400b 983d 99d4 d23c ec8c cd3e
00000120: 1c52 94bd 307e 443d 9d68 6c3e e73f 213d
00000130: f445 033e 242a 03bf 0d01 7ebd ac33 c1bd
00000140: 114b 12be 84de 633e 9067 0d3d 5594 12bf
00000150: d393 2d3e d4c7 a9be b52d e7bd c6ce 433e
00000160: 27eb ebbc 186b 09be e9fa 403e 6141 533e
00000170: 8f88 00be 4142 64be 4331 5fbe 287e c1be
00000180: 8c9d 3c3e 1573 e33d df11 97be 5798 c7be
00000190: ef88 5a3e ca06 503e 7a96 0dbc 1ec4 acbe
000001a0: 6329 5dbe 5caa 433d bad1 fdbd fab3 a9bd
000001b0: 4701 0abe e0f3 fcbc 2cd6 79bd 7704 843e
000001c0: 4ccb 07bd 7dd5 f43d f429 dbbd 5883 47bf
000001d0: 332a 093d a239 60be c86a 5cbd da2e 3a3e
000001e0: c39d 223e 8bbe 003e 311a 21bd f925 76bd
000001f0: fd3e 8bbd 1914 5abe 4c92 16be e4de 21be
00000200: b836 0fbd ea54 ae3d 1375 b9bd 3422 cbbd
00000210: f824 eebc 88f0 fc3c 184a 503e 92b1 913d
00000220: bf43 c23d 1729 cbbc c7cd 0f3c a71f e23d
00000230: 073a d73d 65fb 9d3d 0f64 b63e 5514 97bd
00000240: c59e 8cbe 0d41 3cbe 35d6 153e 5119 f9bc
00000250: 276f bdbd 1dc8 27bd 5399 fdbd 3dc3 f3ba
00000260: cd4f 033d 5347 7f3d 0725 f63d a20f 2bbc
00000270: 80e1 55bd cca9 6bbe 8ad2 333e 4b4a 363c
00000280: af9f 75be ba89 26be 9e9d 6fbe ac35 a5bd
00000290: 3ce7 c6bc ef82 22bd 3075 093b 17dc 493d
000002a0: 160f a1bd 3004 9d3d b71d f03d d2c4 50bd
000002b0: 43aa 443e bee3 06bd 6d12 a0bd 2c2d 313e
000002c0: c186 623d 0272 283e 859e a53e 8d13 81be
000002d0: be13 46be 751a 1bbe 3ce4 8abf 2f5e 023d
000002e0: 2300 833c b970 4cbd 2daa 1cbd d617 44bd
000002f0: 25f8 e6bd 5394 e43d c672 8fbd 0f4c f4bc
00000300: 29e0 353e 16a7 21bc 2668 d4be 66ad b43d
00000310: 6e8f 88be 8646 283d ed57 1ebf 9d7e 0f3d
00000320: 12fc 123d a82c 5fbd 3098 e2ba b30d c6be
00000330: 7ba1 1fbe 9910 1e3e e4a6 46bb 7d64 fc3c
00000340: 3a4d ba39 0115 cdbe 768b 213d 2016 71be
00000350: 24fc 093c b0ac 9abd d624 72be 39db 603d
00000360: 6b70 8cbe a8ec 813d b407 2abe a6ad e8be
00000370: 88d2 9abe 2bac 943d 7990 c63d 52f3 93bd
00000380: 5ca4 06be 6110 52bd 9158 19be aeb3 35be
00000390: 1ba6 9cbe 925e 673e 35b0 a3bd b9f7 973e
000003a0: 8605 6abc 66a8 133e 1b99 42bd 6915 2c3c
000003b0: 44a6 033e ffdb 33be ff94 1dbe 7a11 eabd
000003c0: 8a3a 7c3e 979a 053d 4b95 efbd a2eb 263d
000003d0: 7a1d b93d f1c2 6dbe 21e9 c93d e85d 97be
000003e0: a540 953d a508 76be e074 d8bb 6a08 d13d
000003f0: b57e e73d 6061 88bd df3b 09be e58b b5bd
-0.08326006 -0.08903046 0.031441513 0.021607231 0.107509695 0.13180955 -0.018873157 0.2925678
-0.021119468 -0.11195566 0.045510326 -0.10045871 -0.12250622 -0.15388943 -0.14119697 0.044313103
0.012143335 0.10159701 0.06976745 -0.07972994 0.20046681 0.050395086 0.02304148 0.019005185
-0.3524428 -0.046666004 0.04459405 -0.03264058 0.057048492 0.12175219 0.1699623 0.13352981
-0.47932467 -0.123361245 -0.64698833 -0.07612276 0.0040666964 0.12753437 0.01105226 0.031157533
-0.14855917 -0.10552163 -0.007648931 -0.277433 -0.18200791 -0.10326108 0.22190714 0.040339455
-0.13942142 0.010317237 0.08085329 0.09739544 -0.008011008 -0.12640895 0.17278977 -0.011298569
0.027937915 -0.22187036 -0.050429735 -0.15042543 0.046124022 0.12117878 -0.15558921 -0.086843066
0.15260635 0.04310676 0.3068544 0.007635868 -0.036246203 0.07424021 0.02573614 0.40146577
-0.072422236 0.047971904 0.23086782 0.039367583 0.12819654 -0.51236176 -0.06201272 -0.09433684
-0.14286448 0.22252852 0.034522593 -0.57257587 0.16950922 -0.3316027 -0.11288015 0.19121847
-0.028798653 -0.1341976 0.18845715 0.20630409 -0.12552093 -0.22290899 -0.21796136 -0.37791562
0.18419474 0.111059345 -0.29505822 -0.38983414 0.21341299 0.2031509 -0.008641833 -0.33743376
-0.21597819 0.04776989 -0.12393518 -0.08286281 -0.1347705 -0.030878007 -0.060995266 0.25784656
-0.033152863 0.11954782 -0.10701361 -0.7793479 0.03348751 -0.21896985 -0.053812772 0.18181935
0.15880494 0.12572686 -0.03933162 -0.060094807 -0.067991234 -0.21296729 -0.14704245 -0.15807682
-0.034964293 0.0851229 -0.09055533 -0.09918633 -0.029070362 0.030876413 0.20340765 0.07113947
0.09485578 -0.024799867 0.0087770885 0.110411935 0.10509115 0.07713965 0.35623214 -0.07376925
-0.27464882 -0.1838419 0.14632495 -0.03040758 -0.09249716 -0.040962327 -0.1238276 -0.0018597614
0.032058526 0.06232388 0.12018781 -0.010440739 -0.052217007 -0.23013991 0.17560783 0.011126111
-0.23986696 -0.16263476 -0.2339997 -0.08066878 -0.024280183 -0.03967565 0.002097439 0.04928216
-0.078642055 0.07666814 0.11724418 -0.050968952 0.19205575 -0.032932036 -0.078160144 0.17302388
0.055304293 0.1644974 0.32347503 -0.2521023 -0.19343469 -0.15146811 -1.0850902 0.0318281
0.015991276 -0.04991219 -0.03824823 -0.047874294 -0.112777986 0.11161103 -0.07004313 -0.029821424
0.17761292 -0.009866497 -0.4148571 0.088221356 -0.26671928 0.04108288 -0.61852914 0.035032857
0.035884924 -0.054485947 -0.0017287787 -0.38682327 -0.15588944 0.15436019 -0.0030311877 0.030809635
0.00035534223 -0.40055087 0.03943964 -0.23543596 0.008421931 -0.07552469 -0.23646864 0.054896567
-0.27429518 0.06343967 -0.16604501 -0.45444983 -0.30238748 0.07259401 0.09695525 -0.07224144
-0.13148636 -0.05128515 -0.14975192 -0.17744324 -0.30595478 0.2259467 -0.07992593 0.29681185
-0.014283543 0.14419708 -0.047509294 0.010503151 0.12856394 -0.1756439 -0.15388869 -0.11429115
0.24631706 0.03261813 -0.11698397 0.04075206 0.09038825 -0.23218895 0.09858919 -0.29563832
0.072877206 -0.24026735 -0.0066057295 0.10206683 0.11303464 -0.06659198 -0.13401745 -0.088645734

fc1.bias f4 [64]
00000000: 3f5e 483e 8bfd c6bd a5d3 f7bd 10a6 34bd
00000010: 02d5 2c3e 733e 66bd f90d 06be 5a3c 093c
00000020: f075 843d dda2 34be 1be8 d43d 4ddc 0d3e
00000030: e74b 043e ee17 7c3d 7dab 83bd 726d 80ba
00000040: b42c 8f3b c839 a8bd 7508 f73c de54 14be
00000050: 1653 11be 38d7 c83d f529 803c 074d 18bd
00000060: cd11 f4bc e562 f73d 458a 333b 2357 21be
00000070: 931a 123e b254 123e 8d7b dfbc 342c 24be
00000080: df28 213e 3c8b 7e3c f7e5 f6bd ca67 883d
00000090: 7514 d4bd 81cb 5bb8 a89e 4cbc 753f 03be
000000a0: 3f66 3bbe c590 3cbd 529e 203c 3253 233e
000000b0: 3986 a6bd 22d0 57bd 1cef 7ebc 46b1 12be
000000c0: 821e fbbd 78b6 963d cb66 a0bd be65 ad3d
000000d0: 7621 b5bd be3b 86bc 6403 23be 8ab1 073d
000000e0: 43e3 b43c b9be 12bb dab2 d9bd d43e 31be
000000f0: e32c 7dbd cab8 843d e53a 723d 269f 5f3d
0.19567202 -0.09716328 -0.12100915 -0.044103682 0.16878131 -0.0562119 -0.13091268 0.008376205
0.06467807 -0.17640252 0.10395833 0.1385357 0.1291958 0.06154626 -0.06429193 -0.0009798242
0.0043693427 -0.08214146 0.0301554 -0.144855 -0.14191851 0.09806675 0.015645007 -0.037182834
-0.029793644 0.120794095 0.0027395647 -0.15755896 0.1426795 0.14290121 -0.027280593 -0.16032487
0.15738247 0.015536126 -0.12055581 0.06660421 -0.10355464 -5.2403197e-05 -0.0124889985 -0.12817176
-0.18300723 -0.0460365 0.0098033715 0.15949705 -0.0813107 -0.052688725 -0.015559938 -0.14325437
-0.12261678 0.07359022 -0.07832106 0.084666714 -0.08844273 -0.01638591 -0.15919262 0.0331283
0.022081023 -0.0022391512 -0.10629816 -0.17309123 -0.061810385 0.06480558 0.059138197 0.054595135

fc2.weight f4 [64, 64]
00000000: 77f2 153e 1cec 38be 7620 d43d ea68 aebd
00000010: a932 4a3d 7f8d 8abe 5319 efbb ce2f 02be
00000020: 4dec 05bd 46cd 303e c1b0 4dbc 2ae8 8fbd
00000030: b105 19be 549e 603e a4a8 9ebc e93d 78bd
00000040: 2d3c 143d a034 28be bbd4 f23d 1e63 6c3d
00000050: c5c0 ccbd e20d a7be c639 4f3d 509a 513d
00000060: 7e7f ffbd fbf5 be3d 1167 5cbc 2735 dcbd
00000070: 68f3 85bd 284c 66be cbc6 82bd f0d8 c3be
00000080: a3ca dc3d b494 14bd cb7f 3ebc ceab 303d
00000090: 11a2 90bd 38c3 533d 5b38 783c ec43 b6bd
000000a0: 4e3d 4fbe 178a 62bc bbea 32bd 3f8e 193d
000000b0: 234b 2b3d 0f06 e33c d8f9 8fbe 5750 6ebe
000000c0: 40ef e2bd 8063 363d 26cd 37be 216e 2dbe
000000d0: 3363 b6be de44 b6bd 6097 b4bd 67a7 ea3c
000000e0: 1a2a 2e3d 300d 92bb 5145 bebe d8a3 44be
000000f0: ce72 bdbe fa96 043e 8155 e2bd 3820 a63d
00000100: ebed 2a3e 2663 0d3d 6629 3ebe 17a9 e73d
00000110: 9172 503e 9f9e 663d b45a adbd 0017 083d
00000120: 88d7 84bd 9cc1 09bb 2d17 163e e0a9 b3bd
00000130: 0f06 e0bc f635 ed3d caf4 e0be 7fef 043e
00000140: 4f48 8bbc d361 0a3e 3a3b 11be fee5 98bd
00000150: 7f98 213d 5dee adbd 0507 203d 8d57 93bd
00000160: 4698 89bc bfbe 063d ce75 58be 79f2 76be
00000170: 6e51 19bd 6306 82be 2c6d 11bc 7d27 14be
00000180: 8c32 43be 1fb0 ae3d 4fe1 08bd f8bb 49be
00000190: 5f18 283e f4e3 55bd 7687 8a3e 5842 dfbd
000001a0: 0260 1fbe 4181 43bb 7840 eebd 8fef 7fbe
000001b0: b3c4 1dbe 0831 dc3c 0261 a7bd 346d d13c
000001c0: c358 7ebd a06e f1bd 39ff 883d ca18 573c
000001d0: 3809 b7bd 30fc c83c 0ba7 863d c099 023e
000001e0: 1a48 633d 91ea f13d 796a 7f3e 9d34 67bd
000001f0: ffeb ffbd c172 e0bd e275 413e 8a79 83be
00000200: 1bd4 73be 1bb0 163b 676b 043c a788 793e
00000210: bf85 adbc 39ab aa3c 2d67 bb3d 07c7 803d
00000220: 1368 11be 3e6b 75be 4637 f0bd 8183 0bbd
00000230: 9806 c33c a62e 3ebe b6a8 833d bed3 4c3c
00000240: 4ff4 3dbe 5226 5fbd f572 90bd d34e 913d
00000250: 4167 973d fac3 b13e 91c4 073e 1f35 653e
00000260: 94c0 a8bc 1afc 083e 1538 4e3e 8d19 81bd
00000270: d2ff b7bd ff7f b0bd cf72 863b 15f9 86bd
00000280: 793e 67be de1e f73d 03be 14be 2e35 ca3d
00000290: c7de cb3d 31ee 153e 730a 07be 7257 4c3e
000002a0: 6506 a93d d980 25be 2c44 823d 0621 92bd
000002b0: 9225 5b3d 0870 9f3d 0969 fb3c 1b18 3dbd
000002c0: c0da bbbd b66f 46be e690 d4be d905 d0bd
000002d0: c243 21be 07c3 ee3e 0ae9 423d db6a 92bd
000002e0: d88f 523d d448 36be 6c79 d83d ed8b 8c3d
000002f0: 98e0 38bd 4786 71bd bef6 313d 69d4 eebd
00000300: 5797 7fbe 5b66 95be eb39 463b 9a43 91be
00000310: 2c70 71be 1871 94bd a359 24bf 54ca d1be
00000320: 54a4 80bd 592b 08be c989 82be 0b00 983d
00000330: c6aa 26be 4b24 e4bd 151e 1fbe f6f2 f6bd
00000340: b1ea 113d 476d a2bd 6190 77be b8df fa3a
00000350: d119 d7bb 3f6b 6f3d 4051 21bb e9b9 22bc
00000360: 9803 b03d d7e9 f13d 2fd4 813e f1e0 093e
00000370: b2aa a53d c6db 5cbe 0f3b 873e cd9c 88be
00000380: def8 88be ab7e 143e fad4 00be c76e dd3d
00000390: 73b0 f4be 3645 c0bc 2d21 e3be 83fb 81bd
000003a0: 98f9 09be e7a6 233e 32da f43c 0a8c 10bc
000003b0: 5216 0fbe e007 263c 9455 1bbd 681a d9bc
000003c0: 3195 95be 7e3b 4b3d cc73 1abf 0d9d a4be
000003d0: 29ae fb3d 7143 d6bd dc11 16be 4f61 903a
000003e0: c011 a8be e151 f8be e2a1 6fbe b43c 733e
000003f0: 8381 ebbe 9e7d 3bbb bd5a 23bf e0cb 41be
0.14643274 -0.18058819 0.10357754 -0.085161045 0.04936472 -0.27061078 -0.00729672 -0.12713549
-0.032696057 0.17265806 -0.012554348 -0.07026704 -0.14943577 0.21935397 -0.019367523 -0.060605917
0.0361902 -0.16426325 0.11856981 0.057711713 -0.09997705 -0.3262778 0.050592206 0.051172554
-0.12475489 0.09324261 -0.013452307 -0.107523255 -0.06540567 -0.22489989 -0.06385573 -0.38251448
0.107808374 -0.036274627 -0.011627148 0.043132596 -0.07062162 0.051699847 0.015150155 -0.08899674
-0.2023823 -0.0138268685 -0.043680888 0.037489172 0.041819703 0.02771285 -0.28120303 -0.23272835
-0.110807896 0.044528484 -0.17949352 -0.16936542 -0.35622558 -0.08899854 -0.08817935 0.028644277
0.04252062 -0.0044571385 -0.3716226 -0.19203126 -0.37001652 0.12948218 -0.11051465 0.08111614
0.16692321 0.034518383 -0.1857048 0.11311548 0.20356204 0.056303617 -0.08464566 0.03322506
-0.06486422 -0.0021019941 0.14657278 -0.087726355 -0.027346639 0.11582558 -0.4393676 0.12981986
-0.017002253 0.1351388 -0.1418275 -0.074657425 0.039452072 -0.0849273 0.039069194 -0.07194433
-0.016796242 0.032896753 -0.21138689 -0.24115933 -0.037431173 -0.25395498 -0.008876126 -0.14468189
-0.19062251 0.08529686 -0.033417996 -0.1970061 0.16415547 -0.052219346 0.27056473 -0.10901326
-0.15563968 -0.002983168 -0.1163339 -0.24993728 -0.15407066 0.026878849 -0.081728 0.025564767
-0.06209637 -0.11788678 0.06689305 0.013128469 -0.08937305 0.024534315 0.0657483 0.12753963
0.055488683 0.11812318 0.2494296 -0.05644666 -0.124961846 -0.109593876 0.18892625 -0.25678664
-0.2381138 0.002299315 0.008082247 0.24368535 -0.02118194 0.020833598 0.091505386 0.062879615
-0.14199857 -0.23966691 -0.117292926 -0.03406096 0.023806855 -0.18572482 0.064286634 0.012501655
-0.18550228 -0.054479904 -0.07053176 0.07095113 0.07392741 0.3471983 0.13258578 0.22383545
-0.02059964 0.13377419 0.20138581 -0.063037015 -0.08984341 -0.08618163 0.0041030417 -0.065904774
-0.22582425 0.12066434 -0.14525609 0.098734245 0.09954601 0.14641644 -0.1318758 0.19955233
0.08253173 -0.16162433 0.06360659 -0.07135205 0.053502627 0.0778504 0.030689733 -0.046165567
-0.091725826 -0.19378552 -0.415168 -0.10157365 -0.15748504 0.4663317 0.047585525 -0.07149287
0.05140671 -0.17801219 0.105700344 0.06862626 -0.045136064 -0.058965947 0.043448202 -0.11661608
-0.24960075 -0.29179654 0.0030246924 -0.28371888 -0.23577946 -0.072481334 -0.64199275 -0.40974677
-0.06281343 -0.13297786 -0.25495747 0.07421883 -0.16276082 -0.11139735 -0.15538819 -0.1205806
0.03562421 -0.07930999 -0.2417617 0.001914016 -0.006564357 0.058451887 -0.002461508 -0.00993202
0.085944355 0.118121795 0.25357196 0.13464715 0.08089198 -0.21568212 0.26412246 -0.2668213
-0.2675237 0.14501445 -0.12581244 0.10812145 -0.4779087 -0.023470502 -0.4436125 -0.063468
-0.13474119 0.15981637 0.0298892 -0.00882245 -0.13973358 0.0101337135 -0.03792341 -0.02650185
-0.29215387 0.049617283 -0.6033294 -0.3215107 0.12289078 -0.10462082 -0.1465525 0.0011015328
-0.32826042 -0.4849997 -0.23401597 0.23753625 -0.45997247 -0.002860881 -0.6381033 -0.18925428

fc2.bias f4 [64]
00000000: 1825 e33d 34e9 71bd 8cf3 ad3c cacd ac3c
00000010: f620 a83d 8e3c 3cbe 4fd2 f5bd 4b0e d83c
00000020: 2e6e a7bc a7d9 d3bc 0416 923d 254b 5b3d
00000030: 0534 fc3d 9ed8 65bd c524 a8bd 33c7 cc3d
00000040: b754 39bc c96e 4b3c 0d88 8fbd e39e 9e3d
00000050: 0433 abbb 9f5a 5c3d b4f2 83bd fc62 a3bd
00000060: 1af1 c8bd 88d7 f4bd 58e6 c93d 05b5 dbbd
00000070: f715 cebd 8e70 813d e614 9b3c f43b 42be
00000080: af75 89bd a09d 3a3e 70d1 bc3a a92f 1ebd
00000090: 1b93 2cbe 94ee aabd c944 e7ba fc77 17be
000000a0: 2dc5 8abd b18e e13d 5397 123e 27c0 2ebd
000000b0: 1987 813c 13c0 443c c221 0abe e4e9 b2bd
000000c0: c5c4 803d 1bde 47be b9e2 94bd b090 5a3d
000000d0: 2aba e2bd 7942 dbbc 0d8a b2bc 1a32 c7bd
000000e0: 1481 1ebe a9a0 0abe a973 6c3c 563f 753d
000000f0: 6ffd 2dbd 6b17 be3d c672 f43d 0c0d 65bd
0.110910594 -0.05906029 0.021234296 0.021094222 0.08209412 -0.18382475 -0.12003004 0.026374003
-0.02043828 -0.02586062 0.071331054 0.05353846 0.123146094 -0.056114785 -0.08210138 0.09998932
-0.0113117015 0.01241655 -0.070083715 0.07745149 -0.0052245874 0.05379736 -0.06442776 -0.07977864
-0.098116115 -0.11955172 0.09858388 -0.10727886 -0.10062783 0.06320296 0.018930864 -0.18968183
-0.067118995 0.18224192 0.0014405679 -0.03861967 -0.16852991 -0.083462864 -0.0017644401 -0.14791864
-0.067758895 0.11013544 0.14315538 -0.04266372 0.01581149 0.012008685 -0.1348944 -0.08736017
0.06287531 -0.1951832 -0.072698064 0.05336064 -0.11070664 -0.026765095 -0.021794343 -0.09726353
-0.15478927 -0.1353785 0.014431872 0.059874855 -0.04247802 0.092818104 0.11935954 -0.055920646

fc3_1.weight f4 [32, 64]
00000000: 1c51 38bc 67f6 ef3d cd4c b03d 8ad9 9dbe
00000010: b481 a33d a6be 1fbe 763f dd3d 5209 03be
00000020: c4b7 633e 8ab0 8e3c 7e5e cbbd 938c 89bc
00000030: 99be cd3c b8a2 7d3e d909 4abd 7f8d b23c
00000040: 53a3 863c fb28 213d 9a38 d1bd ac20 be3d
00000050: 1d8f 5e3d 3938 eebd ccdf d53d ca98 05be
00000060: 9acd 98bd 080e c2bd efd0 a1ba f7b1 d6be
00000070: 3af0 45bd 48cf ab3d b652 9cbe 5685 1f3e
00000080: 8cd3 433d 64d0 0c3e 98cf 883d 0d0c a4be
00000090: b5cf 043e 2d60 dfbd 7729 d0bc 5a78 66bd
000000a0: 22a5 f53d 3fec 943d c059 013d 41c8 b93d
000000b0: 5db6 823d 95d0 bd3d c077 8f3e 276b ad3d
000000c0: 9383 9cbc d14b 883e bf54 5fbe 0308 fa3d
000000d0: 7c00 d23d add2 fdbb 95de 1bbe 65f7 ab3c
000000e0: 0c47 28bc fcc3 06be a126 323d 1a7c 0f3e
000000f0: 3d0b d63d 41da 083e db11 aa3d cb55 1ebe
00000100: 0da0 133e aa60 6fbe 3e4c 143e cda2 e43d
00000110: c905 4cbd 335c 4bbd 9fc9 94bb f397 123e
00000120: 4eb2 17be 2ed6 5abe 2d10 523e 2314 2e3d
00000130: e5b0 f5bd fc3f 01be 442e 34bc c23e da3c
00000140: b7e9 bbbd 4db3 5fbc d508 28be f2d0 1f3e
00000150: e126 3fbd 3bd5 193e 6549 7c3d f4c0 1e3e
00000160: 94d0 1c3d da4a 5abd fb5b 5e3c e189 9d3d
00000170: 40b0 3abe f02c 16bd 5f2e 773e 62bc 28bd
00000180: 60fd 78bc d610 cfbd a4a9 2ebd 89d3 453e
00000190: ebf0 303e af71 37be 3e46 f53d b6bc f53d
000001a0: 0791 8f3d 3441 c73c f19f 5dbe 525b 943c
000001b0: 53ff 5dbe 605f 953c 2d07 39be eb81 e4bd
000001c0: 2b2f ebbc 74f1 7ebe 2371 9a3e 6806 26be
000001d0: 9cca bd3d 6d13 9a3d 87b7 ac3e 576d 83bd
000001e0: cf14 08be 0a89 8a3d d3cf 7f3e dd9a 52be
000001f0: 04d4 13be c2a9 83bd 7d4b 873c e11c 8b3e
00000200: 7703 183d f1fa ffbd e9fc 703c 8700 123e
00000210: b675 fc3d 7bcf 253d 56e8 023e 73b2 ee3d
00000220: e22c f1bd 68b4 93bd d3e2 02bd 8275 b93d
00000230: ffa3 833d 438f 6ebe 045e 82bd 6c09 4e3d
00000240: 6b5a fa3c e04d 39be 4189 59bd bec6 533d
00000250: 26c1 fdbd 3e19 403e 3b01 dabd 40ba e13d
00000260: 1e93 c63c 939f 30bd d13e 60bd 79aa 213e
00000270: 07fc 883d a6a9 2abd ce3e 073e f370 d4bd
00000280: 7ca4 9e3d e99e 8a3b 0d69 90bd 9c9d d03e
00000290: 46de ba3c 1b41 34be 198c b73d 5734 013e
000002a0: 01a9 9ebd 1f8e 7c3d 0617 333d 1377 50be
000002b0: 1209 74be c32e a5bd 09cb 8dbe 62f6 df3d
000002c0: 4d02 fc3d c8b1 49bd a962 943e 325f 263d
000002d0: 2803 6abd 2eee 293d 3d08 8a3e 8730 6ebc
000002e0: a233 83be 2978 b03d c79e e13d 06e5 933c
000002f0: 341f 30be 5284 463d d8ff 0abe 23b9 8b3e
00000300: 2704 c83b 1b0f cf3d 2b56 54bd 5f15 aebd
00000310: 31d5 29be 15e2 59be adf6 b8bd 2d7b 5dbe
00000320: 72f0 ab3e de25 253e 0b67 333d 2606 63bd
00000330: 9041 193d b2a3 8a3e c1c1 663d c312 d5bd
00000340: 8a65 973e 5d15 4a3d 8f6c d13d 2c11 2c3e
00000350: d8d1 613d 4d03 c53d da5f de3d 737d a33e
00000360: 457b e1bd 5094 e9bd 403e 833d 9358 2cbe
00000370: b6df a43d 4fc3 0fbe 9861 003c 1133 90be
00000380: ac3b bdb9 c023 2ebe 3e54 803d 88ce 8cbd
00000390: dd0d 993d c8eb 3abd 6f3d 2e3e 92f8 27be
000003a0: cf40 e5bd 4199 a53e fe5d 09be ef0c 27be
000003b0: d93f 073e 0b89 c6be 6ab0 aa3e 278d 60be
000003c0: b474 0cbd f8da 6e3b e109 e6bd db58 713e
000003d0: 56a2 d3ba 9887 d2bd ccda 02bd be15 b83e
000003e0: 91ef b8be 0d41 9dbd dc4b 23bd 4033 31bc
000003f0: 893d 853d 177b 32be a669 0e3d 02a3 78bd
-0.011249807 0.117169194 0.086083986 -0.30830032 0.07983723 -0.1560007 0.1080312 -0.12796524
0.2223807 0.017418165 -0.09930132 -0.016790664 0.025115298 0.24769104 -0.049325798 0.021795986
0.016435301 0.039345723 -0.10215874 0.092835754 0.054335702 -0.11631817 0.104430765 -0.13046566
-0.074610904 -0.094753325 -0.0012345592 -0.4193265 -0.0483248 0.08389145 -0.30531853 0.15578207
0.04780917 0.1375137 0.0668022 -0.32040444 0.12969859 -0.10907016 -0.025410397 -0.05626712
0.11994387 0.07271623 0.031579733 0.090713985 0.06382439 0.092682995 0.2802105 0.08467703
-0.019105708 0.26620343 -0.21809672 0.12208559 0.10253999 -0.007746062 -0.15221627 0.02099199
-0.010270845 -0.131607 0.04349387 0.14012185 0.10451362 0.13364507 0.08304187 -0.15462415
0.14416523 -0.23376718 0.14482209 0.11163864 -0.049810205 -0.049648475 -0.0045406367 0.14315777
-0.14814112 -0.21370766 0.20513983 0.042499673 -0.119966306 -0.12622064 -0.010997359 0.026641253
-0.09175437 -0.0136535885 -0.16409619 0.1560705 -0.046667937 0.15022747 0.061593432 0.15503293
0.038284853 -0.05329404 0.013571735 0.07692314 -0.18231297 -0.03666395 0.24138783 -0.04119528
-0.015197128 -0.10110633 -0.04264225 0.19318976 0.17279403 -0.1791446 0.11976288 0.119988844
0.07010084 0.024323083 -0.21643044 0.018109951 -0.2167943 0.018233955 -0.18069144 -0.111575924
-0.028709015 -0.24896795 0.3016444 -0.16213381 0.0926716 0.075232364 0.3373377 -0.06417339
-0.13289188 0.067644194 0.24981622 -0.20566888 -0.14436346 -0.06428863 0.016515488 0.2717047
0.03711268 -0.12499035 0.014708736 0.14258014 0.12327139 0.040481072 0.12783942 0.1165513
-0.11776139 -0.07212144 -0.031954598 0.09055616 0.06427764 -0.23296838 -0.06365588 0.050301954
0.030560693 -0.18096113 -0.05310941 0.051703207 -0.12390356 0.18759629 -0.10644766 0.110218525
0.024240073 -0.04312093 -0.054747406 0.15787686 0.066886954 -0.041665696 0.13207552 -0.10373106
0.07746217 0.0042303693 -0.07051287 0.40745246 0.022811066 -0.17602961 0.089622684 0.12617622
-0.07747079 0.061658975 0.04372313 -0.20357923 -0.23831585 -0.0806556 -0.27693966 0.10935666
0.12305126 -0.04924181 0.28981522 0.04061813 -0.057131916 0.04148691 0.2695941 -0.014537937
-0.2562533 0.08616669 0.110166125 0.018053543 -0.17199403 0.048466034 -0.13574159 0.27289686
0.0061040106 0.10110303 -0.05183999 -0.0850017 -0.16585232 -0.2127765 -0.09031425 -0.21629019
0.33581883 0.16127726 0.04379944 -0.055425785 0.03741604 0.27078015 0.056337122 -0.10403969
0.29569656 0.04933678 0.10225784 0.16803426 0.055131763 0.0961977 0.10858126 0.31931648
-0.1100984 -0.114052415 0.064083576 -0.16830663 0.08050482 -0.14039348 0.007835768 -0.2816396
-0.00036093348 -0.17005825 0.06266068 -0.0687533 0.07473347 -0.045635015 0.17015623 -0.16403416
-0.11194002 0.32343486 -0.13414761 -0.16313528 0.1320795 -0.3877643 0.33337718 -0.21928845
-0.034290984 0.0036446434 -0.11232353 0.23569052 -0.0016146402 -0.10279769 -0.031946942 0.35954088
-0.36120275 -0.07678423 -0.039867267 -0.010815442 0.065058775 -0.17429768 0.034768723 -0.06070233

fc3_1.bias f4 [32]
00000000: 0290 8a3e 7e3a 793d 622b 383d 4c63 953d
00000010: b5e9 31be dd9a c73c 78cd f4bd 5810 a03d
00000020: 52a1 e6bd 0681 adbc c9cd 843e 6d03 d5bd
00000030: 40ff db3d 71fc a0bc d48c 1d3e 79bb fb3c
00000040: bad8 efbd 5746 d9bc d092 a43e d6d6 293e
00000050: 7cc7 9b3e 0844 4e3e 6e29 183e 95d6 a33e
00000060: 7263 bc3d 6709 823d 9962 963e 6fcc d13b
00000070: 6c6b 913e 94ce 42be 92ff 133d b264 583c
0.27062994 0.060846798 0.044963248 0.0729433 -0.17374308 0.024365837 -0.119532526 0.07815617
-0.11261238 -0.021179687 0.25938252 -0.10401044 0.107420444 -0.019651623 0.15385753 0.030729042
-0.11711259 -0.026522798 0.3214326 0.1658586 0.30425632 0.2014314 0.14859554 0.3199965
0.09198655 0.063494496 0.293721 0.006402544 0.2840227 -0.19024116 0.036132403 0.013207601

fc4_1.weight f4 [1, 32]
00000000: c600 823e 1942 2abe 2f98 0ebd b1f4 a03e
00000010: cf44 5ebe ad83 df3e e665 4cbe f3b3 663e
00000020: d7c6 90be 399c f0be d985 7f3e c49e adbe
00000030: b5cb 0f3f e79b cd3e 55d0 993e 7c6b 80be
00000040: f64d a13e 96d5 9cbd ab1a 893e 03b0 963e
00000050: 8b81 793e 6150 2e3e c9c3 023f c91e 663e
00000060: 7d06 493e 3a8a f5be c192 633e b6db 96be
00000070: aed8 4c3e 22cc 84be a318 683e cd8e 863e
0.25391215 -0.16626777 -0.034813102 0.31436685 -0.21705936 0.43655148 -0.19960746 0.22529583
-0.28276703 -0.46994188 0.24953403 -0.3391019 0.5617021 0.40158007 0.30041757 -0.25082004
0.31504792 -0.07657926 0.2677816 0.2943116 0.24365823 0.1702285 0.51079994 0.22472681
0.19631381 -0.4795702 0.22223951 -0.294645 0.20004532 -0.2593699 0.22665648 0.26280823

fc3_2.weight f4 [32, 64]
00000000: 705a debd 3ac5 b53c a43d 90be fe3d c93e
00000010: 72c6 703d 6b4f f2bd c977 d5b9 bb10 fd3d
00000020: 824f 54be a423 d03d 953e 41be 4161 ed3e
00000030: 04c5 49bd 1ee4 123e 0c6f 873d 17b8 bc3e
00000040: 9323 2a3d d5a1 c2bd 30b9 793e cf9a 043e
00000050: 43d3 fbbc 0af7 25be ea9d 69bd 3632 6fbe
00000060: a850 a43d 1002 c2bd 12a2 e83d c7da b13e
00000070: d134 06be b8c4 0abd c511 ed3c f77c 2cbd
00000080: 2d3b 8bbe 1a10 43be 0f7a 493a 07c0 99bd
00000090: 1a2e fc3d b582 a1be 33fa 643d 0c80 3bbc
000000a0: cf03 bfbe 461c 783e f9a1 913d 8159 d73d
000000b0: 9330 50be e032 373e 5c38 f73d 1e24 553e
000000c0: dc33 20be 8383 963e 0057 063e 156c d2be
000000d0: 640c babd 16fd 67bc 37cb 333e bedd 203e
000000e0: a4ab 493e c71f 533e 32ae b43e 1dc2 7fbe
000000f0: ed42 2b3e fd17 10be db81 1f3e 30bb 973d
00000100: bc46 143e 67fa 8f3d 2ea9 1e3e 8011 8b3e
00000110: 0eea 1bbe 026f 9f3e 7a20 bbbd 138b 333e
00000120: 2e00 a2bd 7966 073e 016b 14be a324 a23d
00000130: 588b 15be 6517 d0bd b8b9 13bd 94b1 14be
00000140: d8f4 843d f8bb 02be c54f 873e 94b2 6ebd
00000150: eb2d 9ebc d5f7 65bd c0a2 96be 69ab 693e
00000160: e10c 84be 248f 183d 0928 6cbd 91ff 6f3e
00000170: 67a4 6bbc 3a9a b3bc 4ec8 eb3d 65d0 583e
00000180: e055 c5bd 9bbc 99bd 008c 883e 5b1e a13c
00000190: 57c2 e53d 1059 993d 828a 0ebe 8688 cf3e
000001a0: cc07 cdbd d99d 9ebc 8051 ab3d 3f19 5a3e
000001b0: cbfd 5f3e 443e 56be cc8a e83d b24a 8cbe
000001c0: 13f9 c83d fcdc 6dbd 780d 10be f5f7 9fbe
000001d0: c06c 373d f5ba 853e ae1c 863e 4692 8b3e
000001e0: 4b69 85bd 0178 b83e cee4 a33e 6501 a6be
000001f0: 13c8 38be 7020 6abe 4f59 54be 4511 b23b
00000200: 4ab9 5f3e 6b82 7ebc 023a b93d 8d57 afbd
00000210: da50 43bd 4efb 64be 1b2f adbc 0112 03bd
00000220: f58e 853e 412e cc3d 7dee e9bd 7b6a c2bd
00000230: af63 73bd b692 d7be 8c13 af3d b917 45be
00000240: e8af 073e aade 38be bb82 ae3e 91e0 ae3c
00000250: ea3f e03b 6a6b 2abe cba5 e4bd 1b9b df3d
00000260: 07b1 d5bd fb48 76bd b2d4 0d3e 5587 ce3e
00000270: 98d3 ef3d a8e1 963e 8a90 e4be b080 17be
00000280: 14b6 11be cf99 e1bb ea0d 00bc 4528 f23e
00000290: 06a3 353e f796 e6bc 86e4 533d 94f9 ba3e
000002a0: e033 71bd 6c14 d83d a162 233e a7d2 983c
000002b0: 1edc b43d 3ff7 423e fe51 613d b971 7abe
000002c0: af42 d8ba 3f0c aebe 6971 003f 81cb 1bbd
000002d0: 753b f73d 9706 bb3c 2506 3abd c823 42be
000002e0: 836a 1fbe 0367 cd3d 3157 463e 8f82 30bd
000002f0: 9070 3cbd c153 9f3d 0480 21ba 58bf 0e3e
00000300: 6421 833e 54b9 97bd 8227 983d a8ed 4bbc
00000310: 3575 163e e44a 88bd a02c f2bc 246a 83be
00000320: a98c fdbd a9aa 403e c23b 54be eb58 3abe
00000330: 3b8d aebe cbda 7ebd 88d5 e73d d42a 5d3c
00000340: 75f2 78be 7276 503e 19f0 cf3d 8d86 853d
00000350: 11d1 71bd a512 5e3e ba67 963e 0221 bcbd
00000360: 288e 113e 100f c8bc 584e c8bd da0e 1d3d
00000370: 4238 2bbe b5e4 4cbc c79c b43d b77b 81bd
00000380: 98e2 37be 71b7 16bc 313a 94bd 2780 333e
00000390: abc7 c3bd d616 4c3e 6260 cdbe 8f8a a93d
000003a0: 13c9 3ebe 2a77 e13d d702 ee3d 12cd 6d3e
000003b0: e1ac 30be b98a 36be 8a56 63bc fbc3 8abc
000003c0: b85b 21bc 726a b9bd 0a4d 283e b287 823e
000003d0: c424 153d d0a7 c93d c4a0 9c3d 73c8 f43d
000003e0: 766c c7bc c3a8 f5bd c28e 8fbe 8caf af3c
000003f0: 5270 b33d c9f1 c7bb ff94 063e 7455 093d
-0.10857093 0.022188772 -0.28172028 0.3930511 0.058783002 -0.11831554 -0.00040715773 0.12356707
-0.20733455 0.10163048 -0.1887153 0.4636326 -0.049260154 0.14344832 0.066129774 0.368592
0.041537832 -0.09503523 0.2438705 0.1294968 -0.030740386 -0.16207519 -0.057035364 -0.23358998
0.080231965 -0.0947305 0.113590375 0.34737226 -0.13106085 -0.033879012 0.028939137 -0.042111363
-0.27193585 -0.19049111 0.00076857297 -0.075073294 0.12313481 -0.31545034 0.05590267 -0.011444103
-0.37307593 0.24229535 0.07110972 0.105151184 -0.2033103 0.17890501 0.120712966 0.20814559
-0.15644783 0.2939721 0.13119125 -0.41098085 -0.090843946 -0.0141594615 0.17557989 0.15709588
0.19694382 0.20617591 0.3528915 -0.24976392 0.16724749 -0.14071651 0.1557688 0.0740875
0.14480108 0.07030182 0.15494224 0.2716179 -0.15226004 0.3113938 -0.09137054 0.17533521
-0.079101905 0.13222684 -0.14493944 0.07917144 -0.14603937 -0.10160712 -0.036065787 -0.14520866
0.06492013 -0.12767017 0.26428047 -0.058275774 -0.019309005 -0.056144554 -0.29421043 0.22819294
-0.25791076 0.037245885 -0.057655368 0.23437335 -0.014382458 -0.021924127 0.115128145 0.21173246
-0.0963552 -0.07506677 0.26669312 0.019667795 0.11218708 0.074876904 -0.13920024 0.40533847
-0.10011253 -0.019362377 0.08365154 0.21298693 0.21874158 -0.2092219 0.113545984 -0.27400738
0.09813132 -0.058072075 -0.14067638 -0.31243864 0.044781446 0.261192 0.26193756 0.27260035
-0.06514224 0.36029056 0.32010502 -0.3242294 -0.18045072 -0.22863936 -0.20737194 0.0054341876
0.21848026 -0.015534024 0.09044267 -0.08561621 -0.047684528 -0.2236149 -0.021140626 -0.03199959
0.2608563 0.0996976 -0.11422441 -0.09492966 -0.059421238 -0.4210412 0.0854865 -0.1924733
0.13250697 -0.1805369 0.34084114 0.021347316 0.0068435566 -0.16642538 -0.11164435 0.10918256
-0.10434156 -0.060128193 0.13850668 0.40337625 0.1171028 0.29469037 -0.44641525 -0.14795184
-0.14229614 -0.0068847905 -0.007815817 0.47296348 0.1773797 -0.028148158 0.05173161 0.36518538
-0.058887362 0.1055077 0.15955593 0.018655134 0.088310465 0.1903963 0.055009834 -0.24457444
-0.0016499365 -0.33993718 0.5017305 -0.038035873 0.120718874 0.02283029 -0.045416016 -0.18958962
-0.15567975 0.100294136 0.19369198 -0.04309326 -0.046005785 0.07779647 -0.00061607384 0.1394018
0.25611413 -0.074083954 0.074294105 -0.012446798 0.14693148 -0.06654909 -0.029562294 -0.25666916
-0.123803444 0.18815102 -0.20725921 -0.18197982 -0.34092125 -0.062220376 0.11320025 0.013498981
-0.2431124 0.20357683 0.10153217 0.06519804 -0.059037272 0.216868 0.29376012 -0.09185983
0.14214385 -0.024421245 -0.09780568 0.03834424 -0.1672068 -0.0125057 0.088189654 -0.06322425
-0.17957532 -0.009199009 -0.07237662 0.17529355 -0.09559568 0.19930586 -0.40112597 0.08278381
-0.18631391 0.11009057 0.116216354 0.2322276 -0.17253448 -0.17826356 -0.013875613 -0.016939154
-0.009848528 -0.09053506 0.16435638 0.25494152 0.036412016 0.09846461 0.07647851 0.11952295
-0.02434371 -0.11995079 -0.28038603 0.021446012 0.08761658 -0.006101821 0.13142775 0.03352876

fc3_2.bias f4 [32]
00000000: 3869 ebbd bfb7 60bd 07dd 893d 72b1 82bd
00000010: fedd 8b3c e35c c53d 358e cabd ec76 9c3d
00000020: 14b4 e03d 246c c03d 7fd9 febc 688d 163d
00000030: 07c1 5f3d 09ed 99bd 4edc 78bd 0dde 8fbc
00000040: f1c4 97bd 6fe8 db3d b7dd 13bd ceea 5b3a
00000050: 950c cb3d 3ee7 9bbd 3a5e 98bb 5931 4ebc
00000060: 5072 f73b f7a5 063e a763 acbc 184b 9a3d
00000070: 53f5 a83d cf0e 45be d9d8 38be 48e4 2cbd
-0.11494678 -0.054862734 0.06731611 -0.06381501 0.017073628 0.09636857 -0.09890405 0.0763987
0.10971847 0.09395626 -0.03110957 0.03675595 0.054627445 -0.07515914 -0.060756974 -0.017561937
-0.074106105 0.107376926 -0.036100116 0.00083891756 0.09914509 -0.07612465 -0.0046499046 -0.012585008
0.007551469 0.13149248 -0.021043612 0.07533854 0.08249917 -0.1924393 -0.18051471 -0.042209893

fc4_2.weight f4 [4, 32]
00000000: 7e78 e9be 08b9 c93e c19b 453e 1160 833e
00000010: 23b7 313e e28f a73d 50f9 2ebe 3674 19be
00000020: f8ff f53d 7a6b 4fbe b665 76be b3e6 b23e
00000030: 8f44 1f3e ebac efbe ffb3 c93c d90f 0cbf
00000040: 99ca 963e a2e0 ac3e 0e2c ba3d f9c6 2c3d
00000050: fb18 963c 8123 9bba 8300 203c 5fef 0c3e
00000060: 673a 9bbc 6dbc 4e3d 555c 41be 15fa 84be
00000070: 1f5c 313e 5d78 4cbe e137 ddbe 0e9d 923d
00000080: ffc4 883e dd6a eebd 3610 ad3d 4ca1 303d
00000090: cd85 84be 7436 0c3d ab87 a93e e7a1 703d
000000a0: 60a4 77bd a5ee ad3e b741 053e 9060 b4bd
000000b0: b090 dd3d a009 e6be 4c78 c63e 7dc7 833e
000000c0: 17fe 54be 1f1d d3bd bc62 90be e8dc ccbd
000000d0: 0cbc d7bb be3a 4a3d 7837 96be b504 91bd
000000e0: 7414 9fbe cd19 13bd 66b5 c53e 85f5 373e
000000f0: 982c 573e bef7 8b3e 62fc 743d dacd ce3d
00000100: 53f6 0ebe 9189 dcbe 73ac a8bd 2b14 98be
00000110: 7d25 903d 2b74 363e 7ad6 da3d 1ffc 9b3e
00000120: 57e9 54be 4e72 65be c8f2 8bbe 3e4a 69be
00000130: a658 73be 73bb 933e 2a49 32be cc42 bc3e
00000140: 5c7d c0be c946 2cbe 2110 183e b779 883e
00000150: 1a39 363d 0359 a2bd e808 53be 156f 333e
00000160: 899d 603d 6d4a d2bc 436a 0fbe 6df7 8dbd
00000170: 7772 8b3d c0f1 dabd 5062 95bc 29e2 b3be
00000180: b078 c43d 10e8 ed3e a382 363c 6bf4 a8be
00000190: 4fbe 313d 2dd9 4dbe b9dd 17bf 0014 debe
000001a0: a684 bd3d b9c6 aa3e 2476 983e 1726 783c
000001b0: c3b0 763d 8f54 8dbe 3bfd 12be 93dd 72bd
000001c0: ff67 293f da81 b3bd f095 a33e 7635 e93c
000001d0: 5338 39be 1ccd 92bd c30e b03d b2c9 a6be
000001e0: fb77 f73d 03db 15be 06a9 cabe 298b 01bc
000001f0: cc1e 5bbe 8a6a 11bf 7234 613e 3ed9 e63e
-0.4559974 0.3939898 0.19297697 0.2565923 0.17355017 0.0818174 -0.17087293 -0.14985737
0.12011713 -0.20255843 -0.24062237 0.34941635 0.15553497 -0.46811613 0.024621962 -0.5471168
0.29451445 0.3376513 0.09090434 0.042181943 0.018322458 -0.0011836143 0.009765747 0.13763188
-0.018948747 0.050472666 -0.18882878 -0.25972047 0.17320298 -0.1996779 -0.43206695 0.07158862
0.26712796 -0.11641476 0.084503576 0.043122575 -0.25883332 0.034231618 0.3311132 0.058748152
-0.060459495 0.33971134 0.1301335 -0.0880748 0.108186126 -0.44929218 0.38763654 0.25738135
-0.20800053 -0.10308289 -0.28200328 -0.10003072 -0.006583696 0.049372427 -0.29339194 -0.07080976
-0.31070292 -0.035913277 0.3861496 0.17964752 0.21013105 0.2733745 0.059811004 0.10097857
-0.13961153 -0.43073705 -0.08236017 -0.29702887 0.070384 0.17817752 0.106854394 0.3046579
-0.20792137 -0.22406885 -0.27333665 -0.22782227 -0.23764285 0.2885395 -0.17410722 0.36769712
-0.37595642 -0.16823877 0.14849903 0.2665536 0.04448805 -0.07927134 -0.20608866 0.17522843
0.054837737 -0.025670255 -0.1400538 -0.06931958 0.06808942 -0.106906414 -0.018235356 -0.35133484
0.09593332 0.46466112 0.011139545 -0.32998976 0.043394383 -0.20102377 -0.59322697 -0.43374634
0.09253816 0.33354738 0.29777634 0.0151458 0.060227167 -0.27603576 -0.14354412 -0.05929334
0.6617431 -0.087650016 0.3195033 0.028467875 -0.18087892 -0.07168028 0.085965656 -0.32575756
0.12083431 -0.14634328 -0.3958208 -0.0079067135 -0.21398467 -0.5680319 0.21992663 0.45087618

fc4_2.bias f4 [4]
00000000: b50a 9e3b c36e 8b3c e15d 513d e0d9 e03d
0.0048230537 0.017020589 0.05111492 0.10979056
